Deep_Q_Learning/model/model.pth (torch, 16787 bytes, 4 tensors)

linear1.weight f4 [256, 11]
-0.29474354 -0.070850566 -0.2726893 0.1506231 -0.066945985 -0.07361534 -0.03968653 -0.24621534
0.00011598377 -0.1968567 -0.297492 0.15072209 -0.06419393 -0.11180988 0.16601805 0.26257432
-0.27337742 -0.199204 -0.08514811 -0.12582138 0.26708123 -0.35013342 0.005750553 0.18851937
0.17704593 -0.056234237 -0.08735435 -0.273588 0.09759891 -0.12774135 0.24529284 0.20292757
0.15484089 0.18533832 0.08632069 0.35205755 -0.26713622 -0.27405542 0.11608136 -0.14310926
-0.06455392 0.26034102 0.21202752 -0.0043460424 0.15433441 0.1796825 0.062447373 0.19595855
-0.13834813 0.10906859 -0.035493027 -0.13786794 0.019703096 -0.11268846 0.20669731 -0.2201772
0.33523408 -0.18478261 0.22525996 0.26103583 0.09383101 0.25010252 0.26926512 0.17703219
0.122736946 -0.09288842 0.18722928 -0.09731986 0.003772618 -0.21065468 0.1774129 0.17151025
0.13856886 -0.023241313 -0.09775117 0.071775615 -0.006005065 0.020930057 0.09905091 0.29833713
0.11448215 0.1385267 -0.041132014 -0.18065192 -0.2641279 -0.15592027 -0.25918993 0.17268384
0.07937013 -0.2827995 0.30166423 -0.18329093 0.08618414 -0.16018428 0.033319835 -0.17347707
0.1563662 -0.24289295 0.13121758 -0.24999228 -0.18821812 -0.2663894 -0.16813244 0.16823538
0.10450353 -0.20484905 0.054584336 -0.3176112 0.0042257244 0.0036941026 -0.21008179 0.016234923
0.06013564 -0.114155695 -0.23514622 -0.034815338 0.042643838 0.07011695 0.04648087 0.2939206
0.19725613 -0.04222417 0.008857163 -0.06846306 0.02260161 -0.14424899 -0.17197058 0.009516916
-0.24195889 -0.23048674 0.1393477 -0.22549474 0.09498781 0.13422355 -0.26166973 0.21369343
-0.20365638 -0.17554057 0.2972242 -0.10365953 -0.14544259 -0.09298791 0.16860954 0.18603952
0.16041854 -0.18624818 0.21936773 0.17765859 0.2654236 0.24402747 -0.27319506 -0.31166193
0.14015242 -0.18133716 0.17805222 0.014350625 -0.12193161 -0.115822114 -0.21265233 -0.17640711
-0.10311883 -0.072782144 0.19082107 -0.26828048 -0.26153916 0.19045515 0.07867045 0.16624728
-0.2986487 -0.20586017 0.009631838 0.0755317 0.14014566 -0.20876473 0.0331531 0.06701415
-0.09050337 -0.2820891 -0.18732333 0.16353105 -0.092431456 0.07383573 -0.010031002 -0.14195016
0.09024116 0.07655392 0.03443066 0.05789055 0.12081648 0.034085523 -0.11943259 -0.20945908
-0.08591178 -0.014139489 0.059726596 -0.1670176 0.016171932 0.095645204 0.31790325 -0.2242151
0.26502246 -0.11962589 -0.10309407 -0.11242966 0.16877985 -0.23184562 0.24602824 0.17813472
0.009756285 0.21526785 0.23376276 -0.009660653 0.14216436 0.27053154 0.17698249 0.05499712
0.1333908 0.24831206 0.2999957 0.27210087 -0.009118031 -0.11174794 0.07771786 0.2581564
-0.15195446 0.20402485 0.14650995 0.25195792 0.10131702 -0.29933774 0.23389399 -0.032336622
0.23216945 -0.06133482 0.0578717 -0.16835079 0.15187016 0.16096261 -0.0017257929 -0.114360094
-0.25094533 -0.12574081 0.20641017 -0.13026989 0.10655466 0.22370695 0.06939411 -0.06991659
-0.11782552 -0.23428819 -0.20226994 -0.0036840555 -0.079302244 -0.19186676 0.14466359 0.21279263
00000000: a0e8 96be 1a1a 91bd ef9d 8bbe f13c 1a3e
00000010: fa1a 89bd a4c3 96bd 588e 22bd e01f 7cbe
00000020: 503c f338 ce94 49be df50 98be e456 1a3e
00000030: 1b78 83bd 94fc e4bd a300 2a3e 2470 863e
00000040: 20f8 8bbe 22fc 4bbe 2262 aebd 52d7 00be
00000050: dfbe 883e b044 b3be 236f bc3b 390b 413e
00000060: 874b 353e df55 66bd d6e6 b2bd ba13 8cbe
00000070: f0e1 c73d a1ce 02be 0c2e 7b3e 3fcc 4f3e
00000080: 9c8e 1e3e 54c9 3d3e e7c8 b03d e340 b43e
00000090: 14c6 88be fe50 8cbe 10bc ed3d 3c8b 12be
000000a0: d834 84bd 6b4b 853e be1d 593e 3f69 8ebb
000000b0: d709 1e3e b0fe 373e d1c8 7f3d 5ca9 483e
000000c0: 22ab 0dbe 5a5f df3d 2361 11bd 412d 0dbe
000000d0: 6368 a13c 35c9 e6bd 76a8 533e 2276 61be
000000e0: cda3 ab3e a737 3dbe 8caa 663e 7da6 853e
000000f0: 792a c03d 700d 803e 1edd 893e ed47 353e
00000100: 825d fb3d 493c bebd 08b9 3f3e a24f c7bd
00000110: 073e 773b dcb5 57be baab 353e 62a0 2f3e
00000120: ffe4 0d3e 9164 bebc c431 c8bd 18ff 923d
00000130: 23c6 c4bb 8375 ab3c 34db ca3d a5bf 983e
00000140: 9e75 ea3d f1d9 0d3e 0b7a 28bd d1fc 38be
00000150: c63b 87be 90a9 1fbe 8bb4 84be 08d4 303e
00000160: cf8c a23d 19cb 90be bc73 9a3e 9eb0 3bbe
00000170: 4f81 b03d 5907 24be 617a 083d f9a3 31be
00000180: 761e 203e eeb8 78be e75d 063e fafd 7fbe
00000190: 40bc 40be 3164 88be e92a 2cbe e545 2c3e
000001a0: f205 d63d f3c3 51be d393 5f3d ef9d a2be
000001b0: f277 8a3b c218 723b ae1f 57be 1aff 843c
000001c0: ca50 763d 76ca e9bd 2cca 70be 879a 0ebd
000001d0: 4eab 2e3d 7a99 8f3d ba62 3e3d c37c 963e
000001e0: 83fd 493e 40f3 2cbd a21d 113c 5c36 8cbd
000001f0: 0327 b93c 02b6 13be 0e19 30be d7ec 1b3c
00000200: 12c4 77be b704 6cbe 2ab1 0e3e 18e8 66be
00000210: f888 c23d e671 093e 93f9 85be 73d2 5a3e
00000220: 4c8b 50be e8c0 33be c52d 983e 734b d4bd
00000230: e7ee 14be 7270 bebd fba7 2c3e 2581 3e3e
00000240: c244 243e d8b7 3ebe efa1 603e 22ec 353e
00000250: 9ae5 873e 56e2 793e 39e0 8bbe 2792 9fbe
00000260: 1e84 0f3e 73b0 39be 5253 363e e21e 6b3c
00000270: 48b7 f9bd 2534 edbd 88c1 59be 11a4 34be
00000280: f72f d3bd ce0e 95bd 9966 433e 0f5c 89be
00000290: 76e8 85be ad06 433e f91d a13d ba3c 2a3e
000002a0: 7be8 98be 02cd 52be dbce 1d3c 5db0 9a3d
000002b0: 5882 0f3e 6cc6 55be 8ccb 073d b73e 893d
000002c0: d559 b9bd fc6d 90be b0d1 3fbe af74 273e
000002d0: b44c bdbd 3037 973d 1259 24bc 625b 11be
000002e0: 5bd0 b83d 4dc8 9c3d 2a07 0d3d a41e 6d3d
000002f0: a16e f73d 439d 0b3d 1399 f4bd 717c 56be
00000300: 84f2 afbd 51a9 67bc e0a3 743d a906 2bbe
00000310: 007b 843c a2e1 c33d 37c4 a23e a598 65be
00000320: 06b1 873e 6bfe f4bd fc22 d3bd 8641 e6bd
00000330: a0d4 2c3e f068 6dbe d4ee 7b3e f368 363e
00000340: d3d8 1f3c 2d6f 5c3e 815f 6f3e b747 1ebc
00000350: 8993 113e 1c83 8a3e e63a 353e a944 613d
00000360: 9997 083e 8445 7e3e 0999 993e ce50 8b3e
00000370: cb63 15bc 1bdc e4bd 8b2a 9f3d 132d 843e
00000380: f399 1bbe e4eb 503e b406 163e a100 813e
00000390: 4c7f cf3d cc42 99be e881 6f3e 6873 04bd
000003a0: d4bd 6d3e 383a 7bbd e00a 6d3d 2664 2cbe
000003b0: da83 1b3e 62d3 243e 0034 e2ba a035 eabd
000003c0: e87b 80be 33c2 00be 305d 533e 7865 05be
000003d0: 5439 da3d 6f13 653e 801e 8e3d 6e30 8fbd
000003e0: 824e f1bd 3ee9 6fbe da1f 4fbe 3270 71bb
000003f0: 3769 a2bd b878 44be b122 143e 50e6 593e

linear1.bias f4 [256]
-0.01652397 0.13862507 0.24479106 0.17484075 -0.18839416 0.11971505 -0.1550103 0.14543483
-0.08152676 0.14276612 0.32808772 -0.0085151885 -0.25314835 -0.019113315 -0.19992326 -0.2955567
0.13426201 0.076692365 0.0153505765 -0.08992613 -0.025958084 -0.2964079 -0.23385291 0.1806101
-0.12621461 0.23801155 0.09012143 0.106676266 0.04078768 -0.07565434 -0.10778488 0.072864935
-0.10371221 0.013305228 0.2386733 -0.1964265 0.017044106 -0.24731469 -0.06532089 0.17652465
-0.15698197 -0.18873274 0.18469688 0.1312584 0.006419896 0.31728533 -0.09176432 0.1848012
0.19733237 0.306589 0.08207815 0.04680098 -0.0590125 0.19819973 -0.056911208 0.31493542
-0.2810212 0.30671725 -0.2761883 -0.13568576 0.086408414 -0.2779712 -0.24057055 0.21902846
0.1147216 -0.100708075 0.15974866 -0.18141875 -0.16068912 0.3030786 -0.24401878 -0.21646766
-0.25146946 0.11181118 0.31423107 0.1662078 -0.07897999 -0.015543656 0.135926 -0.054536816
0.060583577 0.35947692 0.31411305 0.12505804 0.16547349 0.32310876 0.0389326 0.26043224
0.1769007 0.27273053 0.15568513 -0.24586669 0.03097761 -0.22550604 -0.1764413 -0.19797003
0.11868819 -0.13434911 0.25728577 0.073426224 -0.29521585 0.18925405 -0.01571703 0.1340928
-0.05712711 0.25614104 -0.08008092 -0.2742271 0.29760206 -0.1730996 -0.299622 0.023750912
-0.09568451 -0.21504909 -0.033725377 0.03129642 -0.0988917 0.2986886 -0.015571186 0.26819292
0.077696726 -0.31778952 0.18364002 -0.123816565 0.2171202 -0.050646707 0.24347146 0.12870567
-0.09322904 0.008697322 -0.05525927 0.08703002 0.0019861672 0.021105945 0.30713293 -0.25745553
0.11075848 0.23930159 -0.0006789923 -0.25584543 0.19377494 -0.13395736 -0.2328123 -0.31782144
-0.13255851 -0.1618594 0.28109664 -0.1342652 -0.13532679 0.34387228 0.3150773 0.03247887
0.36729595 -0.19277044 0.16905902 0.24537079 0.13162088 -0.19718234 0.026506325 -0.014159791
-0.20270778 0.20700376 0.2403571 -0.29452854 0.22467259 -0.18471844 -0.22211704 -0.11935677
0.03947108 -0.010529571 -0.22165401 0.020431437 -0.02133298 0.16903779 -0.3175751 -0.15240426
-0.2915667 -0.120624736 -0.0636389 0.2207165 0.18016306 -0.0740505 0.13190418 -0.26644576
0.03415154 -0.1867416 -0.2745185 -0.16820386 0.18826409 -0.14161731 0.29202017 0.16380796
0.24119417 0.13101692 0.2823404 0.19831292 -0.2348082 0.2647669 0.10301214 -0.06387369
-0.18571451 0.32516503 0.07700356 0.032633975 -0.08856703 -0.17557587 0.2512351 -0.09817964
-0.07734333 0.23273778 -0.33451197 -0.22410087 0.2030447 -0.112704836 -0.26750848 -0.056268
0.09773526 0.1296822 0.07896549 0.09127322 0.18538184 0.20171683 -0.00311183 -0.15741117
0.10518632 0.33415437 0.20368837 -0.20225911 -0.2930524 0.2972524 -0.25968105 0.09818091
-0.1973245 -0.17073546 0.2094976 -0.22879772 -0.26228046 -0.059258156 -0.008891695 -0.010425887
-0.17930476 0.2427215 -0.091484666 0.013866459 -0.19470295 -0.14610589 0.20409706 0.036777787
-0.28662276 -0.0013132863 0.16831137 -0.057370245 -0.0734029 -0.18240832 -0.0964219 -0.115811884
00000000: 475d 87bc bbf3 0d3e 82aa 7a3e 7409 333e
00000010: 66ea 40be 2a2d f53d 05bb 1ebe deec 143e
00000020: 80f7 a6bd 4831 123e 1dfb a73e 4a83 0bbc
00000030: a99c 81be 8793 9cbc afb8 4cbe 3553 97be
00000040: fb7b 093e e310 9d3d fc80 7b3c 312b b8bd
00000050: 0ca6 d4bc c7c2 97be 2377 6fbe dbf1 383e
00000060: 673e 01be 4db9 733e 9691 b83d 1679 da3d
00000070: fb10 273d aaf0 9abd 52be dcbd 363a 953d
00000080: 1167 d4bd 2cfe 593c c666 743e 0724 49be
00000090: 15a0 8b3c 1040 7dbe f5c6 85bd e1c2 343e
000000a0: e2bf 20be 2843 41be 2e21 3d3e 9a68 063e
000000b0: fe5d d23b 3973 a23e efee bbbd 873c 3d3e
000000c0: 7f11 4a3e 3cf9 9c3e 9718 a83d 62b2 3f3d
000000d0: 17b7 71bd dff4 4a3e ba1b 69bd 373f a13e
000000e0: 03e2 8fbe 0b0a 9d3e 8e68 8dbe 35f1 0abe
000000f0: e5f6 b03d 3e52 8ebe 2058 76be ff48 603e
00000100: 29f3 ea3d 0940 cebd 2795 233e d6c5 39be
00000110: b08b 24be 1e2d 9b3e 0fe0 79be b3a9 5dbe
00000120: 9bc0 80be 43fd e43d e5e2 a03e 6132 2a3e
00000130: 43c0 a1bd d2aa 7ebc 2f30 0b3e ff61 5fbd
00000140: 7c26 783d 5c0d b83e 6dd3 a03e 370f 003e
00000150: e271 293e 836e a53e ca77 1f3d 6057 853e
00000160: 7525 353e 56a3 8b3e ec6b 1f3e 7ac4 7bbe
00000170: c2c4 fd3c 0eeb 66be 07ad 34be a8b8 4abe
00000180: cb12 f33d d092 09be f6ba 833e 7d60 963d
00000190: 8826 97be d0cb 413e 00c1 80bc 9f4f 093e
000001a0: 1efe 69bd eb24 833e 7701 a4bd 7f67 8cbe
000001b0: 4c5f 983e 0641 31be 0e68 99be 4691 c23c
000001c0: 3ef6 c3bd d435 5cbe 9f23 0abd ad30 003d
000001d0: bb87 cabd b6ed 983e 4a1e 7fbc 9550 893e
000001e0: 761f 9f3d 4fb5 a2be 210c 3c3e 8a93 fdbd
000001f0: c254 5e3e ec72 4fbd 9550 793e 6bcb 033e
00000200: deee bebd 367f 0e3c 8b57 62bd cc3c b23d
00000210: 5b2a 023b 60e6 ac3c 8740 9d3e 36d1 83be
00000220: 58d5 e23d 7a0b 753e 67fe 31ba 2cfe 82be
00000230: f06c 463e 1e2c 09be 5966 6ebe 7eb9 a2be
00000240: 6bbd 07be 78be 25be e6eb 8f3e d17c 09be
00000250: 1b93 0abe 0710 b03e d051 a13e 9008 053d
00000260: 370e bc3e 9d65 45be cf1d 2d3e 7b42 7b3e
00000270: a0c7 063e 2bea 49be cb23 d93c 78fe 67bc
00000280: a192 4fbe cbf8 533e 2c20 763e 72cc 96be
00000290: 9210 663e d526 3dbe a672 63be 5271 f4bd
000002a0: 6dac 213d 3984 2cbc 45f9 62be d45f a73c
000002b0: 80c2 aebc 3e18 2d3e 3499 a2be dd0f 1cbe
000002c0: 3b48 95be 1a0a f7bd 1d55 82bd 8203 623e
000002d0: aa7c 383e caa7 97bd e411 073e 946b 88be
000002e0: 7ce2 0b3d 3139 3fbe b08d 8cbe a23d 2cbe
000002f0: 4dc8 403e 2104 11be ab83 953e 46bd 273e
00000300: 9bfb 763e 4d29 063e ec8e 903e 8b12 4b3e
00000310: 9071 70be 878f 873e 07f8 d23d 36d0 82bd
00000320: f22b 3ebe 087c a63e 0bb4 9d3d 34ab 053d
00000330: a262 b5bd 29ca 33be e3a1 803e 6812 c9bd
00000340: 2e66 9ebd d052 6e3e 2745 abbe b37a 65be
00000350: f3ea 4f3e cbd1 e6bd dff6 88be 4679 66bd
00000360: 6d29 c83d 69cb 043e a9b8 a13d 74ed ba3d
00000370: bdd4 3d3e db8e 4e3e d8ef 4bbb 6530 21be
00000380: ed6b d73d 4816 ab3e af93 503e 031d 4fbe
00000390: f70a 96be 7731 983e eaf4 84be 1313 c93d
000003a0: 6f0f 4abe 47d5 2ebe 8a86 563e f349 6abe
000003b0: a049 86be aeb8 72bd 79ae 11bc 57d1 2abc
000003c0: ab9b 37be fc8b 783e 505c bbbd 2530 633c
000003d0: 3660 47be c89c 15be d2fe 503e 4ea4 163d
000003e0: 38c0 92be 9322 acba d159 2c3e 10fd 6abd
000003f0: 4254 96bd 3fc9 3abe d878 c5bd c82e edbd

linear2.weight f4 [3, 256]
0.015507716 -0.00457053 -0.0051657497 -0.017974392 -0.09123034 -0.052621648 -0.03594298 -0.033294424
-0.021730663 -0.042437393 0.020638274 0.017469248 -0.0704154 0.005926878 -0.021285366 -0.001649015
0.0052715386 0.053710204 -0.08790987 -0.052937876 0.009356622 -0.013847083 -0.03445576 -0.004910069
0.07751045 0.032064468 -0.05356824 -0.04549899 -0.067529656 0.061884325 0.027053207 -0.037607234
0.015756248 0.010072072 -0.0017639815 0.06965027 -0.023955435 -0.0066082627 -0.052028563 -0.0017627554
-0.10139976 -0.020138338 -0.10018384 -0.059228953 -0.0760682 0.045670178 -0.06964384 -0.05887167
-0.020092083 0.049208544 -0.057107165 -0.07731192 -0.050152037 0.01131329 -0.01994247 -0.014490283
-0.007748775 0.0023418714 -0.051621936 0.035925925 -0.0067921756 0.028854914 -0.046564043 0.012967886
-0.01880999 -0.047652252 -0.0062017576 -0.042817928 -0.022565365 -0.08470495 -0.058368664 -0.03805424
-0.050341368 -0.056542322 0.002621106 -0.004406538 0.052992944 -0.03466597 -0.047881372 -0.05507287
0.039996028 -0.015629781 -0.043668855 -0.041963615 -0.009795786 -0.06459783 -0.041174702 0.008265885
-0.04954213 -0.05199807 -0.04300075 0.0018811713 -0.0537653 -0.004714132 -0.0137158455 -0.055652425
0.025563376 -0.03519635 -0.0901699 -0.062210616 0.0014847689 0.012948763 0.0019386746 -0.011681286
-0.082867384 -0.09062893 0.01929629 -0.022799326 0.025217395 -0.0011885329 -0.060181938 -0.097418256
0.033556916 -0.12913482 0.008292653 0.04134023 0.05504767 -0.061622966 -0.06898184 -0.016386744
-0.030755747 -0.010238023 0.02259444 0.020657627 -0.09384677 -0.0020270108 0.028829847 1.0572956e-05
-5.407771e-05 0.0019402475 -0.027484894 -0.061902724 -0.015342788 0.05474067 -0.07663086 0.023424841
-0.036858015 -0.04559768 -0.055440523 0.018098323 -0.09201997 -0.0073862937 -0.00899896 -0.019398987
-0.011616297 0.037168644 0.015275424 -0.017473908 -0.014557901 0.014794109 -0.09092647 0.03970884
-0.103647746 0.0054194108 0.021869391 -0.02970272 -0.007711918 0.060651876 0.020460928 0.0077898516
-0.044660233 0.046441328 -0.0284746 -0.0112037435 -0.07471365 0.027180899 -0.019683395 -0.054062616
0.016570596 -0.0013106354 -0.003007069 -0.09847149 -0.058917053 0.038987417 0.007332637 -0.020975078
0.0063461238 0.0075678616 -0.05218145 -0.004653298 -0.0050717792 0.015975915 -0.048593007 -0.09327881
-0.016534833 -0.09487321 0.032558836 0.04994247 0.0069871116 -0.072411746 -0.02255693 -0.032037526
-0.02591724 -0.090441085 -0.08776754 -0.097033516 0.043189075 -0.102072336 -0.05030108 -0.030239819
-0.009533802 -0.0889898 -0.044905882 0.08482925 -0.0014961606 -0.063422844 -0.026219698 0.018356847
-0.008890215 0.025221244 -0.02533679 -0.045333613 -0.10614975 -0.04615257 0.03067582 -0.077592015
-0.09158195 -0.06390157 0.008362339 0.030305436 -0.040012684 -0.032361895 -0.0023256904 -0.04352397
-0.05067361 -0.0892135 -0.08773163 -0.0308255 0.022863952 0.0067358087 -0.00039802294 -0.056644496
-0.10687656 0.02427847 -0.08015744 -0.06440857 -0.0028922015 0.045347303 -0.0015409169 0.009936321
0.036042713 0.009113123 -0.018034212 0.01639956 0.0061140796 -0.056955803 -0.02510018 -0.06686071
0.042422764 -0.097578496 0.070216 -0.024748052 0.005768704 -0.09995635 -0.07195941 -0.0037377842
00000000: 1314 7e3c 62c4 95bb 7345 a9bb 083f 93bc
00000010: f9d6 babd cc89 57bd f238 13bd bc5f 08bd
00000020: 8104 b2bc d5d2 2dbd 9911 a93c ab1b 8f3c
00000030: f335 90bd 4236 c23b a65e aebc c323 d8ba
00000040: dfbc ac3b 3bff 5b3d 170a b4bd 63d5 58bd
00000050: 844c 193c e0de 62bc 7c21 0dbd a5e4 a0bb
00000060: ccbd 9e3d 0856 033d 5f6a 5bbd 265d 3abd
00000070: fd4c 8abd 6b7a 7d3d b09e dd3c 0b0a 1abd
00000080: 3f13 813c 5505 253c 6635 e7ba cda4 8e3d
00000090: 303e c4bc 208a d8bb e71b 55bd 420c e7ba
000000a0: adaa cfbd 28f9 a4bc 2f2d cdbd 0f9a 72bd
000000b0: a5c9 9bbd a710 3b3d 6ea1 8ebd 6c23 71bd
000000c0: 2798 a4bc e68e 493d 34e9 69bd b655 9ebd
000000d0: 396c 4dbd 615b 393c 645e a3bc a768 6dbc
000000e0: 70e9 fdbb 157a 193b 8671 53bd 1027 133d
000000f0: e690 debb 2461 ec3c f0b9 3ebd 4277 543c
00000100: 6817 9abc 022f 43bd 1d38 cbbb da61 2fbd
00000110: 00db b8bc ca79 adbd fb13 6fbd c3de 1bbd
00000120: c032 4ebd ec98 67bd ddc6 2b3b b864 90bb
00000130: 210f 593d e7fd 0dbd 421f 44bd 1794 61bd
00000140: e0d2 233d 070a 80bc 1dde 32bd 0ae2 2bbd
00000150: 817e 20bc de4b 84bd cea6 28bd a26d 073c
00000160: b0ec 4abd eefb 54bd 8e21 30bd a291 f63a
00000170: 0139 5cbd 0179 9abb 6db8 60bc ccf3 63bd
00000180: 496a d13c 0c2a 10bd ffaa b8bd 8fd0 7ebd
00000190: 949c c23a 0c27 543c 201b fe3a dd62 3fbc
000001a0: 60b6 a9bd a99b b9bd 4113 9e3c a7c5 babc
000001b0: b694 ce3c 8cc8 9bba 5681 76bd 3983 c7bd
000001c0: fa72 093d eb3b 04be e8dd 073c 5f54 293d
000001d0: aa79 613d 5d68 7cbd 5a46 8dbd 7e3d 86bc
000001e0: 7af3 fbbc 61bd 27bc fa17 b93c 2f3a a93c
000001f0: bc32 c0bd 99d7 04bb 922c ec3c 8062 3137
00000200: 80d1 62b8 e74f fe3a 0028 e1bc b68d 7dbd
00000210: 5160 7bbc c137 603d a4f0 9cbd 74e5 bf3c
00000220: 6ef8 16bd a2c4 3abd 9a15 63bd ef42 943c
00000230: f774 bcbd b908 f2bb 6070 13bc a0ea 9ebc
00000240: 4852 3ebc 263e 183d c645 7a3c 7125 8fbc
00000250: 4384 6ebc fe62 723c a837 babd bda5 223d
00000260: 4545 d4bd 5095 b13b 7027 b33c 1e53 f3bc
00000270: 42b4 fcbb 1a6e 783d ad9d a73c 0342 ff3b
00000280: a6ed 36bd 4339 3e3d 9043 e9bc e88f 37bc
00000290: 7803 99bd 7aaa de3c 123f a1bc c370 5dbd
000002a0: 0fbf 873c a0c9 abba 3f12 45bb 6cab c9bd
000002b0: 0253 71bd 45b1 1f3d 9e46 f03b edd3 abbc
000002c0: 25f3 cf3b d3fb f73b 37bc 55bd b17a 98bb
000002d0: 2b31 a6bb ecdf 823c 7609 47bd f608 bfbd
000002e0: 0f74 87bc e34c c2bd 6a5c 053d 7a90 4c3d
000002f0: 24f4 e43b 9c4c 94bd 50c9 b8bc c839 03bd
00000300: 6450 d4bc 2d39 b9bd 78bf b3bd 82b9 c6bd
00000310: 07e7 303d 4d0b d1bd 8108 4ebd 7fb9 f7bc
00000320: aa33 1cbc 4940 b6bd 3bef 37bd f5ba ad3d
00000330: d21a c4ba d6e3 81bd b1ca d6bc 1961 963c
00000340: 44a8 11bc c89c ce3c 1a8f cfbc bdaf 39bd
00000350: 0a65 d9bd 7a0a 3dbd db4b fb3c 90e8 9ebd
00000360: 518f bbbd d4de 82bd 3102 093c 1b43 f83c
00000370: 57e4 23bd e88d 04bd 9c6a 18bb 3146 32bd
00000380: 228f 4fbd 91b5 b6bd a4ac b3bd c285 fcbc
00000390: 2f4d bb3c 0fb8 dc3b bcad d0b9 0f04 68bd
000003a0: 19e2 dabd a4e3 c63c 9529 a4bd a4e8 83bd
000003b0: 178b 3dbb 18be 393d 97f8 c9ba f3cb 223c
000003c0: 86a1 133d 354f 153c 7cbc 93bc 5f58 863c
000003d0: 9e58 c83b 7d4a 69bd e59e cdbc 45ee 88bd
000003e0: 7ec3 2d3d 3cd7 c7bd 68cd 8f3d 6dbc cabc
000003f0: 6607 bd3b eab5 ccbd 755f 93bd 9df5 74bb

linear2.bias f4 [3]
-0.035043634 -0.070303656 -0.046604387
00000000: ea89 0fbd 5dfb 8fbd 3ee4 3ebd
