Deep_Q_Learning/model/model.pth (torch, 16787 bytes, 4 tensors)

linear1.weight f4 [256, 11]
-0.14980254 0.076151945 -0.13264528 0.032745533 0.109458424 -0.23363487 -0.07488398 -0.124802105
0.19147663 -0.16293521 0.17351688 -0.13963622 0.119499356 -0.24663512 -0.21757205 -0.0787169
-0.11000535 -0.12355948 0.2866036 0.25572807 0.22997722 -0.24172948 0.1542258 -0.05248803
-0.29736522 0.24344215 -0.2247756 -0.29336467 -0.12433402 0.23671202 -0.08825272 -0.15305243
0.14112507 0.22103474 0.12374921 0.14029859 -0.17823324 0.1873561 0.09747678 0.06657152
0.27703232 0.14240779 -0.07587315 -0.23947246 -0.01596272 -0.27405697 -0.12492333 -0.2030416
-0.20986038 0.27647337 -0.107805066 0.27715558 -0.07436665 0.082250595 -0.12840709 0.17442115
-0.12711653 -0.20518078 -0.049573876 -0.0014097516 0.0734221 -0.06608082 0.011977287 -0.0077198627
0.009374607 0.20467772 -0.14859025 0.17901649 0.15419887 0.2650677 0.29603297 -0.2870855
-0.0377857 0.28496516 -0.07675124 -0.2824536 -0.26009443 0.1444859 -0.13218905 -0.23498712
0.01245392 0.03864425 0.26938525 -0.15624137 -0.24514024 -0.2760426 0.10278895 0.18260643
-0.2001743 -0.07185863 0.14537379 0.13675046 0.039354272 0.08537639 0.16091238 0.2671709
0.13128756 0.0835196 -0.00064298447 -0.09558892 0.16890724 -0.09068917 -0.29868624 0.030436786
0.24779737 -0.16376054 -0.11497736 0.12259485 0.2655417 -0.0137704015 0.019295365 -0.14922853
-0.10075366 -0.13489819 0.21189138 0.003189023 -0.14240608 0.18539968 0.01009676 -0.29667425
0.18855862 -0.061931226 -0.08598071 0.12563829 0.26473117 -0.041932892 0.29581362 -0.19331306
0.212489 0.15230218 0.09139716 -0.25525802 0.20155507 0.06319931 0.13733771 -0.28884083
-0.07874133 -0.22017777 0.1634861 -0.20683798 -0.19311671 -0.17074521 0.18755268 -0.23330492
0.122625925 0.12735313 -0.21837747 0.088376895 -0.1359404 -0.19987747 -0.051374465 0.23475315
-0.121849716 -0.20706362 0.025560472 -0.29004672 0.24073789 0.18436152 -0.0012057556 -0.28987575
0.050716583 -0.024886232 -0.28375778 0.0696944 -0.026514137 -0.23158014 0.15426467 0.27667427
-0.08215984 0.041985564 0.23131268 0.024903575 -0.061182924 0.26505092 0.2481509 0.026738796
0.19099316 0.25499526 -0.07493694 -0.08717733 0.02655196 0.020634227 0.28080872 -0.13222088
0.16159898 0.10898884 0.1811882 0.10090535 0.17066744 0.22959904 0.057639938 0.20427613
0.048015956 -0.23762369 -0.29710123 0.12269308 0.16609392 0.22620875 0.08258228 -0.1725613
-0.26973253 -0.116493694 0.024142476 -0.23190102 -0.27100563 0.21808147 -0.02767951 0.15722147
-0.07955589 0.17487276 -0.28573743 0.28965017 -0.074346706 0.038524155 0.10680182 -0.09007402
-0.15859555 -0.20984456 -0.07950941 0.25860113 -0.11555314 0.06591144 -0.05840735 0.0833005
-0.083655864 0.29452267 0.14215475 -0.26364207 -0.07710643 -0.2618608 -0.20732525 -0.025531173
-0.27630514 -0.29480138 0.2813633 -0.17761135 0.09113264 0.056163114 0.26499656 -0.17529015
-0.15899214 -0.066104986 -0.22123758 0.11156395 0.15891808 0.08417291 0.14778739 -0.06437638
-0.11495928 0.10152299 0.25485808 0.2085393 0.022503406 0.24815817 0.019068843 0.1991604
00000000: d665 19be 8df5 9b3d 2ad4 07be 2e20 063d
00000010: bd2b e03d fb3d 6fbe c65c 99bd 3f98 ffbd
00000020: 7312 443e 7dd8 26be 69ae 313e ccfc 0ebe
00000030: 14bc f43d eb8d 7cbe 35cb 5ebe 5336 a1bd
00000040: 7c4a e1bd c10c fdbd b5bd 923e caee 823e
00000050: 267f 6b3e ef87 77be 5eed 1d3e b0fd 56bd
00000060: 4140 98be e648 793e 932b 66be e533 96be
00000070: d6a2 febd a364 723e d8bd b4bd c7b9 1cbe
00000080: 1783 103e ee56 623e 3a70 fd3d 6faa 0f3e
00000090: c682 36be 47da 3f3e e8a1 c73d a656 883d
000000a0: 2ed7 8d3e 59d3 113e 6263 9bbd 4538 75be
000000b0: 40c4 82bc 3251 8cbe ced7 ffbd 23ea 4fbe
000000c0: a4e5 56be eb8d 8d3e e7c8 dcbd 56e7 8d3e
000000d0: 8b4d 98bd 0073 a83d 267d 03be 759b 323e
000000e0: d62a 02be e91a 52be fa0d 4bbd 6ac7 b8ba
000000f0: 535e 963d 6255 87bd 623c 443c e7f6 fcbb
00000100: f497 193c 0997 513e 0b28 18be 1950 373e
00000110: 4fe6 1d3e f4b6 873e a291 973e dffc 92be
00000120: 2ec5 1abd f4e6 913e c12f 9dbd c29d 90be
00000130: 192b 85be 1df4 133e 915c 07be 77a0 70be
00000140: 870b 4c3c 6f49 1e3d ddec 893e bdfd 1fbe
00000150: 0b06 7bbe 7555 8dbe 0383 d23d 2efd 3a3e
00000160: 7efa 4cbe 9e2a 93bd dedc 143e 5008 0c3e
00000170: f231 213d d1d9 ae3d 37c6 243e a0ca 883e
00000180: 3f70 063e 530c ab3d f58d 28ba 20c4 c3bd
00000190: 05f6 2c3e 3ebb b9bd 67ed 98be 9156 f93c
000001a0: 98be 7d3e d8b0 27be 4079 ebbd 0213 fb3d
000001b0: 15f5 873e 409d 61bc 5011 9e3c 5dcf 18be
000001c0: ef57 cebd c022 0abe 0efa 583e edfe 503b
000001d0: e6d2 11be 6ad9 3d3e e16c 253c b0e5 97be
000001e0: 8315 413e 99ab 7dbd a816 b0bd 53a7 003e
000001f0: d88a 873e d3c1 2bbd e274 973e dcf3 45be
00000200: b796 593e 1af5 1b3e 6f2e bb3d 2eb1 82be
00000210: 7464 4e3e a46e 813d 42a2 0c3e f2e2 93be
00000220: 2243 a1bd 4876 61be e668 273e 56cd 53be
00000230: 63c0 45be d5d7 2ebe cf0d 403e 7ce7 6ebe
00000240: 4d23 fb3d dc68 023e 589e 5fbe f2fe b43d
00000250: f633 0bbe aeac 4cbe 086e 52bd 2163 703e
00000260: 588c f9bd 7c08 54be 3264 d13c 0181 94be
00000270: fe83 763e 44c9 3c3e 720a 9eba 986a 94be
00000280: 31bc 4f3d 36de cbbc b348 91be f0bb 8e3d
00000290: 2d34 d9bc 5823 6dbe 8ff7 1d3e 40a8 8d3e
000002a0: 6b43 a8bd 0ef9 2b3d 3bdd 6c3e 9502 cc3c
000002b0: f29a 7abd c1b4 873e 451b 7e3e 520b db3c
000002c0: b693 433e bd8e 823e 8a78 99bd 078a b2bd
000002d0: 7f83 d93c 1c09 a93c 29c6 8f3e e964 07be
000002e0: 347a 253e 8a35 df3d 6689 393e 77a7 ce3d
000002f0: 72c3 2e3e 031c 6b3e db17 6c3d c32d 513e
00000300: 61ac 443d a053 73be a71d 98be 8246 fb3d
00000310: 8614 2a3e 44a3 673e e620 a93d e9b3 30be
00000320: 621a 8abe 3f94 eebd 71c6 c53c 7677 6dbe
00000330: 40c1 8abe c050 5f3e 24c0 e2bc aafe 203e
00000340: 33ee a2bd d811 333e 2d4c 92be 074d 943e
00000350: 1643 98bd 81cb 1d3d eaba da3d ba78 b8bd
00000360: df66 22be 7ee1 56be d4d5 a2bd 5e67 843e
00000370: 20a7 ecbd 94fc 863d 8c3c 6fbd 7499 aa3d
00000380: c453 abbd adcb 963e 0491 113e 18fc 86be
00000390: fae9 9dbd 9e12 86be 124d 54be c026 d1bc
000003a0: de77 8dbe 35f0 96be da0e 903e c0df 35be
000003b0: c0a3 ba3d 4b0b 663d a1ad 873e 437f 33be
000003c0: d6ce 22be 0d62 87bd 1b8c 62be a47b e43d
000003d0: 6cbb 223e d962 ac3d 9455 173e c3d7 83bd
000003e0: c56f ebbd 49eb cf3d c27c 823e 548b 553e
000003f0: 1059 b83c 2d1d 7e3e 4336 9c3c b4f0 4b3e

linear1.bias f4 [256]
-0.035121914 -0.29714814 0.28004137 -0.14454594 0.13348138 0.26486894 0.13987458 0.14766635
0.24792014 -0.21837777 0.19607666 -0.1892225 0.13941726 0.2378334 0.09402575 -0.19690414
0.1627173 -0.19383591 0.08876244 -0.07352527 0.10476735 -0.297564 0.110909276 -0.12807786
-0.26473877 -0.0641298 -0.05567941 -0.16040686 0.00072857237 0.1686639 -0.059576962 0.07234253
0.06695758 -0.21564297 0.15448074 -0.06625224 -0.29483747 -0.11509267 -0.14319257 0.18726753
0.22082491 0.28310776 0.26446807 -0.21853876 0.14396411 -0.2694706 0.099512085 0.29374954
0.11984902 -0.029809568 -0.09953904 -0.15619382 0.27872145 0.13818711 0.20212603 -0.14853773
-0.19653882 -0.116504624 0.27501547 0.27308327 -0.017008048 0.20620075 0.22482173 0.20879245
0.02826632 -0.25668824 0.16648583 -0.2993164 -0.25923598 -0.06363685 -0.010397444 0.21026324
-0.18915199 0.006046584 -0.016667718 -0.08355885 0.25462466 0.11077765 0.2143047 0.20644982
-0.26095822 0.084806316 -0.15203409 -0.06454009 -0.020084105 0.25320658 -0.17830108 0.13673797
-0.18633625 0.065786496 0.08266575 0.014540973 -0.2074801 -0.21089505 0.09776018 -0.05541085
-0.2591626 -0.029573098 0.08201198 0.06864598 0.07269688 -0.2297124 0.13564987 -0.17220438
0.19539522 0.1676749 0.23342736 -0.2119676 0.08447368 0.22783116 0.06575107 0.23616117
-0.26784495 0.061617788 -0.14573978 -0.15608239 -0.27814996 0.252888 -0.264207 -0.21759288
0.085736245 -0.24176474 -0.10656251 -0.17418742 0.2971506 -0.0497071 0.20045722 -0.023972144
-0.266355 0.25202805 -0.2489704 -0.23338844 -0.24350661 0.2567241 0.122955725 -0.2701672
0.1630031 -0.22383463 0.218695 0.19871266 -0.16850898 0.2888462 0.164654 -0.24649845
-0.17569365 -0.07195765 0.14118926 0.27234092 -0.11406393 -0.14663434 -0.2099202 0.040220514
-0.22340381 0.26735207 0.13898453 0.11715718 -0.19154115 0.10587172 -0.023956254 0.1372564
-0.21198048 -0.00830559 0.23875572 0.12486241 -0.24659303 -0.023229811 -0.01202204 -0.112594284
0.13462827 0.21566038 -0.15652473 0.29158482 0.17751743 -0.24367073 -0.29219645 0.20180821
-0.18585727 0.03608963 -0.16714016 -0.032380767 -0.1681705 0.26114637 0.0332607 0.08305809
0.22323158 0.04107389 -0.22217904 -0.08231949 -0.1937259 -0.06781254 -0.11973591 0.12731917
-0.07021615 0.13104087 -0.14406313 0.19255745 -0.2719282 -0.20842281 -0.22395736 0.053983096
0.17601033 0.08729977 0.050527237 0.2429611 -0.22056803 -0.12813267 -0.21467334 -0.17706154
-0.19111717 0.08489304 0.023219943 -0.13568538 0.058152806 0.17403878 -0.18983552 -0.26034477
0.045263715 -0.24925485 0.13033657 0.16609737 0.21146938 -0.09460151 -0.20455433 -0.21610525
0.12238802 0.20544827 0.22956277 0.30094415 -0.08715933 -0.29666007 -0.028630428 0.28717124
-0.079968974 -0.089291066 0.17180529 0.103228964 -0.27865016 0.22482586 0.008203562 0.25766096
0.0056533054 0.21448228 -0.229882 0.10142402 0.08634208 -0.024708718 -0.2294059 -0.046387013
0.16204995 -0.012952913 -0.23898931 0.053188708 0.18488342 0.16113062 -0.07204897 -0.1705073
00000000: ffdb 0fbd cd23 98be 9561 8f3e da03 14be
00000010: 58af 083e e79c 873e 483b 0f3e d935 173e
00000020: c7de 7d3e 6c9e 5fbe 52c8 483e 8bc3 41be
00000030: 66c3 0e3e 998a 733e 9390 c03d 3da1 49be
00000040: 5d9f 263e ec7c 46be 15c9 b53d 6b94 96bd
00000050: 4490 d63d 4f5a 98be 6724 e33d d826 03be
00000060: d78b 87be 7c56 83bd 1810 64bd b241 24be
00000070: aafd 3e3a 3bb6 2c3e f906 74bd 5228 943d
00000080: 0e21 893d 83d1 5cbe 3330 1e3e 41af 87bd
00000090: f0f4 96be b5b5 ebbd 13a1 12be 0fc3 3f3e
000000a0: ed1f 623e 80f3 903e 5c68 873e a0c8 5fbe
000000b0: 546b 133e 0df8 89be fecc cb3d 5766 963e
000000c0: 6773 f53d 3233 f4bc 20db cbbd 46f1 1fbe
000000d0: 94b4 8e3e ec80 0d3e 20fa 4e3e 461a 18be
000000e0: 7941 49be fa99 eebd d4ce 8c3e 92d1 8b3e
000000f0: 7654 8bbc 4a26 533e ab37 663e b0cd 553e
00000100: c58e e73c a46c 83be 437b 2a3e 0040 99be
00000110: 94ba 84be 0954 82bd 0a5a 2abc 3f4f 573e
00000120: 0fb1 41be 6c22 c63b bd8a 88bc e720 abbd
00000130: 2a5e 823e 64df e23d b172 5b3e 9567 533e
00000140: 519c 85be efae ad3d d3ae 1bbe 982d 84bd
00000150: 6c87 a4bc 4ba4 813e 8f94 36be 0a05 0c3e
00000160: eece 3ebe 12bb 863d a94c a93d 433d 6e3c
00000170: aa75 54be dff4 57be 7d36 c83d 7df6 62bd
00000180: f6b0 84be 4843 f2bc e6f5 a73d 4396 8c3d
00000190: 1ae2 943d ba39 6bbe cde7 0a3e 5856 30be
000001a0: af15 483e f8b2 2b3e 9507 6f3e 090e 59be
000001b0: 8900 ad3d 924c 693e 7fa8 863d 3cd4 713e
000001c0: f922 89be ef62 7c3d cf3c 15be 10d4 1fbe
000001d0: ac69 8ebe 897a 813e 2446 87be abd0 5ebe
000001e0: 7c96 af3d 2d91 77be 723d dabd 305e 32be
000001f0: 2024 983e ac99 4bbd a844 4d3e 3b61 c4bc
00000200: af5f 88be d209 813e 19f2 7ebe 61fd 6ebe
00000210: cc59 79be 5771 833e 36d0 fb3d 5b53 8abe
00000220: 49ea 263e e834 65be 95f1 5f3e 557b 4b3e
00000230: 9e8d 2cbe a6e3 933e 0f9b 283e 176a 7cbe
00000240: 09e9 33be 885e 93bd eb93 103e 4570 8b3e
00000250: 5a9a e9bd 5027 16be 52f5 56be 44be 243d
00000260: f8c3 64be 5fe2 883e f651 0e3e 1bf0 ef3d
00000270: 5d23 44be 46d3 d83d e83f c4bc f18c 0c3e
00000280: 6911 59be 2b14 08bc 617c 743e ddb7 ff3d
00000290: e282 7cbe 724c bebc 17f8 44bc d597 e6bd
000002a0: fedb 093e 13d6 5c3e 0548 20be 9b4a 953e
000002b0: 21c7 353e d284 79be c69a 95be d0a6 4e3e
000002c0: 5e51 3ebe b8d2 133d ca26 2bbe b2a1 04bd
000002d0: e334 2cbe fab4 853e 5f3c 083d 5c1a aa3d
000002e0: d296 643e 183d 283d e782 63be 1f97 a8bd
000002f0: 1560 46be 4de1 8abd 1a38 f5bd f55f 023e
00000300: 7ccd 8fbd 942f 063e 4985 13be c82d 453e
00000310: 2c3a 8bbe ca6c 55be 1455 65be 611d 5d3d
00000320: 0d3c 343e 39ca b23d a6f5 4e3d cbca 783e
00000330: 96dc 61be 3635 03be 54d3 5bbe 9f4f 35be
00000340: 38b4 43be 67dc ad3d c037 be3c 1cf1 0abe
00000350: a331 6e3d 3937 323e 3e64 42be e94b 85be
00000360: 7266 393d aa3c 7fbe f376 053e 6e15 2a3e
00000370: 6e8b 583e 70be c1bd b176 51be b24a 5dbe
00000380: 92a6 fa3d 0861 523e 8112 6b3e 5a15 9a3e
00000390: 9780 b2bd d4e3 97be 5c8a eabc 1c08 933e
000003a0: c6c6 a3bd 3cde b6bd baed 2f3e b569 d33d
000003b0: 3cab 8ebe c038 663e 3c68 063c 23ec 833e
000003c0: 5d3f b93b 3ea1 5b3e 3066 6bbe 66b7 cf3d
000003d0: 1ed4 b03d f069 cabc 61e9 6abe 4f00 3ebd
000003e0: 6cf0 253e 7438 54bc 9db9 74be 67dc 593d
000003f0: 1452 3d3e 6dff 243e 698e 93bd 7799 2ebe

linear2.weight f4 [3, 256]
0.042366322 0.03141282 -0.03758143 -0.04929076 0.015615317 -0.0048364983 0.02269809 -0.027713124
-0.06336633 -0.05777683 -0.008289228 0.011703271 0.019158892 0.035267066 0.025006587 0.0071021905
-0.043881055 -0.027817735 0.048983254 -0.0066202334 -0.050405063 -0.057038523 -0.0466442 0.04613643
0.006647557 -0.056444764 0.059420627 -0.025660247 -0.013060029 -0.02053565 -0.008169136 0.02231431
0.055306107 -0.011951949 -0.0016055407 0.054421287 0.046008017 0.05461107 -0.028495347 0.04239517
0.048806686 0.042024344 0.020400146 0.017539872 0.01815924 0.03457132 -0.022677952 -0.029053764
0.009536514 0.049606495 -0.008277338 -0.024676187 -0.0508049 0.048159935 0.007147521 -0.002834251
-0.026743904 0.01971607 -0.03883333 -0.035030928 -0.025998967 -0.021332266 0.038485367 0.0048072487
0.02698733 -0.010587579 0.0089284545 0.038458325 -0.05475466 0.004206557 -0.06303554 -0.021184877
-0.032560147 -0.04939224 0.02195462 -0.0039956816 0.013807859 -0.029664846 0.015243815 0.0029821035
0.020802232 -0.022885041 0.033280037 -0.0026029423 -0.02166034 -0.008507599 0.057650767 0.012757633
0.0465312 0.0530231 -0.04717011 0.025040945 0.039835647 0.043904558 0.0075551113 -0.041027717
0.00819188 -0.051611915 0.0053263544 -0.035289045 -0.05778347 0.03561257 0.021078423 -0.054783456
-0.059427164 0.024055377 0.0096431365 0.009641983 -0.051232874 0.010099944 -0.057950206 0.055093348
0.05558329 -0.0509198 -0.0429937 0.007074663 0.004546347 0.045086216 -0.051548533 -0.0139064295
0.048462864 0.015179388 0.010628266 0.03666947 0.056799058 0.047425658 0.0076409965 0.03427482
0.012922624 -0.0042159413 0.030715205 0.04148473 -0.06602447 -0.04283158 0.020386023 -0.009414369
-0.04323076 -0.045873277 -0.050435744 0.04048068 0.014900538 -0.05468341 -0.02635896 -0.056038972
-0.0007997975 0.035060138 -0.004187997 0.048682444 0.05902745 -0.056394897 0.025014464 0.041579112
-0.04018137 -0.04615712 -0.015047151 0.03874899 -0.02007477 -0.011280323 -0.044429623 -0.03463213
-0.0063725784 -0.0289412 0.033137698 -0.05244279 0.035333276 -0.038465865 0.02665158 -0.0010730858
0.05601074 -0.032393135 0.03090342 -0.031090118 0.043997984 -0.033736076 0.0146210715 0.023308357
0.03589648 0.044444073 0.02627977 0.01725461 0.02303653 0.0227965 -0.05000019 -0.031754307
0.021884466 -0.010316712 0.025162164 -0.047318198 -0.037222583 0.0005288658 0.015241263 0.011937665
-0.0018339063 -0.05523918 -0.031606212 0.05587349 0.02680609 0.00037016114 0.042839374 -0.038087875
-0.06238998 0.01728453 -0.016456911 -0.015589194 -0.050827675 0.023287006 0.009897701 -0.047669183
0.007600074 0.044564366 -0.042137966 -0.050753735 -0.044525005 -0.049185142 0.0050780177 0.0015456291
-0.012194326 -0.039775833 0.023557963 -0.034123965 0.0722095 -0.017262809 0.0014147088 0.02193503
0.011765358 0.032873023 0.0044906675 0.019805938 -0.0017594728 0.040427536 0.033556685 0.03455538
-0.036060087 0.037312448 -0.054544106 -0.031254552 0.036144458 0.023493363 -0.020802684 0.0489433
0.013045378 -0.01587599 -0.04478167 0.02242754 -0.047096327 0.015897553 -0.057543803 0.024206905
0.008042803 -0.061856657 -0.04100772 -0.008527897 0.043513753 -0.049049124 -0.04424491 0.037703734
00000000: 4f88 2d3d bbaa 003d fcee 19bd 1ce5 49bd
00000010: 63d7 7f3c 7d7b 9ebb 58f1 b93c a206 e3bc
00000020: 35c6 81bd 66a7 6cbd 8bcf 07bc 14bf 3f3c
00000030: 1cf3 9c3c 3374 103d 9dda cc3c 7eb9 e83b
00000040: 9fbc 33bd 05e2 e3bc aaa2 483d 8bee d8bb
00000050: 8a75 4ebd 3aa1 69bd fd0d 3fbd 8ef9 3c3d
00000060: c0d3 d93b a032 67bd 0b63 733d 7035 d2bc
00000070: bbf9 55bc 613a a8bc d7d7 05bc 80cc b63c
00000080: a888 623d 1cd2 43bc 0271 d2ba dbe8 5e3d
00000090: e772 3c3d dbaf 5f3d 136f e9bc 8fa6 2d3d
000000a0: 85e9 473d b821 2c3d 351e a73c c7af 8f3c
000000b0: b0c2 943c a89a 0d3d 1dc7 b9bc 2902 eebc
000000c0: 0a3f 1c3c 2e30 4b3d ac9d 07bc b725 cabc
000000d0: cc18 50bd 5a43 453d c035 ea3b d7be 39bb
000000e0: 0816 dbbc 9883 a13c b30f 1fbd 977c 0fbd
000000f0: c9fb d4bc 01c1 aebc d5a2 1d3d 2086 9d3b
00000100: 8814 dd3c 8677 2dbc a748 123c 7a86 1d3d
00000110: 6c46 60bd 28d7 893b c718 81bd e88b adbc
00000120: ca5d 05bd 844f 4abd 2dda b33c 35ee 82bb
00000130: 5c3a 623c b103 f3bc 32c1 793c 656f 433b
00000140: 7169 aa3c 6979 bbbc a650 083d 2096 2abb
00000150: 0671 b1bc 7563 0bbc 3623 6c3d 6405 513c
00000160: 8097 3e3d c02e 593d 7235 41bd ab22 cd3c
00000170: b42a 233d 44d5 333d de90 f73b ae0c 28bd
00000180: 3c37 063c 0467 53bd b388 ae3b 3f8b 10bd
00000190: 5cae 6cbd 7cde 113d a8ac ac3c 9e64 60bd
000001a0: e669 73bd c80f c53c 3ffe 1d3c 68f9 1d3c
000001b0: 90d9 51bd 3c7a 253c 325d 6dbd 90a9 613d
000001c0: 4eab 633d 4891 50bd 291a 30bd 93d2 e73b
000001d0: 86f9 943b 53ac 383d 8e24 53bd cbd7 63bc
000001e0: ff80 463d f8b2 783c 2e22 2e3c ba32 163d
000001f0: 21a6 683d 6841 423d 5361 fa3b c163 0c3d
00000200: 6ab9 533c e125 8abb 749e fb3c e4eb 293d
00000210: d637 87bd 2b70 2fbd 9700 a73c ba3e 1abc
00000220: bd12 31bd 9ee5 3bbd b695 4ebd 12cf 253d
00000230: 6321 743c b6fb 5fbd bfee d7bc 1f89 65bd
00000240: 80a9 51ba 389b 0f3d 773b 89bb 3e67 473d
00000250: c4c6 713d 56fe 66bd 22eb cc3c dc4e 2a3d
00000260: 3895 24bd 400f 3dbd 5388 76bc 43b7 1e3d
00000270: d873 a4bc 1bd1 38bc d6fb 35bd 6cda 0dbd
00000280: 10d1 d0bb 1816 edbc 65bb 073d 40ce 56bd
00000290: a0b9 103d 628e 1dbd 6a54 da3c c9a6 8cba
000002a0: 856b 653d aaae 04bd 2b29 fd3c b4b0 febc
000002b0: 3b37 343d d72e 0abd 388d 6f3c 2bf1 be3c
000002c0: 3008 133d fd0a 363d ac48 d73c 8a59 8d3c
000002d0: 1bb7 bc3c babf ba3c 00cd 4cbd ce10 02bd
000002e0: 0d47 b33c 6d07 29bc e220 ce3c bad0 41bd
000002f0: b576 18bd 95a3 0a3a 7eb6 793c 3296 433c
00000300: af5f f0ba 7a42 62bd 8475 01bd 9adb 643d
00000310: 7298 db3c 3012 c239 5778 2f3d 0802 1cbd
00000320: a38c 7fbd 4998 8d3c a5d0 86bc d269 7fbc
00000330: ae30 50bd 64c4 be3c f829 223c c340 43bd
00000340: 0b0a f93b 2089 363d dc98 2cbd 26e3 4fbd
00000350: da5f 36bd 5c76 49bd 8065 a63b b596 ca3a
00000360: b6ca 47bc fceb 22bd a1fc c03c 92c5 0bbd
00000370: 93e2 933d bc6a 8dbc c06d b93a 18b1 b33c
00000380: 7dc3 403c dda5 063d 7326 933b 1040 a23c
00000390: 1c9e e6ba 5897 253d bc72 093d f189 0d3d
000003a0: beb3 13bd f0d4 183d a469 5fbd c604 00bd
000003b0: 360c 143d 2775 c03c 646a aabc c578 483d
000003c0: 48bc 553c 5d0e 82bc fc6c 37bd f6b9 b73c
000003d0: 14e8 40bd 963b 823c 0db3 6bbd 8f4d c63c
000003e0: f6c5 033c 685d 7dbd b6f7 27bd 98b8 0bbc
000003f0: 7a3b 323d bce7 48bd 273a 35bd 3b6f 1a3d

linear2.bias f4 [3]
-0.0013594942 -0.009893505 -0.015311056
00000000: 0e31 b2ba 5e18 22bc 39db 7abc
