Deep_Q_Learning/model/model.pth (torch, 17216 bytes, 4 tensors)

linear1.weight f4 [256, 11]
000000 ac 46 0c be 01 6d 7c 3d c8 6b 8d 3e 1e cc fa 3c
       -0.13698834 0.06162739 0.27621293 0.030614909
000010 1a c8 8f be 32 53 9d bd 5e 74 07 be 96 a2 10 3e
       -0.28082353 -0.07681884 -0.13227984 0.14124522
000020 34 db 66 be 78 ec 5c 3b a6 8a 0c be f7 6a b0 3d
       -0.22544557 0.0033710282 -0.13724765 0.08614152
000030 4e 28 aa 3d 37 03 34 bb 75 93 8c 3e 28 90 91 3e
       0.08308469 -0.0027467737 0.2745625 0.28430295
000040 9a a8 57 be d6 30 90 bd f4 b3 83 be fa 33 4e 3e
       -0.2106041 -0.07040565 -0.2572323 0.20137015
000050 9c cd da 3d f5 79 16 3e d9 56 83 be 24 48 20 be
       0.10683748 0.1469496 -0.25652197 -0.1565252
000060 54 3e 4c be 51 5f 09 bd 7e c4 7d 3e f1 51 5d be
       -0.19945651 -0.033538166 0.24781987 -0.2161329
000070 f2 f0 82 3d 3f 1e 4c 3e bc 79 93 be 2f 63 bc 3d
       0.06393613 0.19933413 -0.28803813 0.09198605
000080 8d 80 a3 bd 4f 4e 0b 3e 5a 10 91 bc ac ea 6b 3e
       -0.079835035 0.13604091 -0.017707992 0.23038739
000090 8b 50 27 3c 12 cc 45 3e 7f d0 54 bd 51 9b 45 3e
       0.010212074 0.19316128 -0.05195665 0.1929753
0000a0 4f 94 b9 bd ef 23 28 3e e2 8f e0 3d a2 c1 03 3e
       -0.09061491 0.16419958 0.109649435 0.12866834
0000b0 b1 ad 52 3e d4 bf 3a 3c 27 68 2b bd d2 e2 54 be
       0.2057407 0.011398274 -0.041847374 -0.2078965
0000c0 74 fd 15 3e a2 a2 4c 3d 09 c0 9a 3e ce 44 c7 bd
       0.14647466 0.049959786 0.30224636 -0.0972992
0000d0 8e c2 3c 3e 52 e5 97 3e 87 46 34 bd 2d 38 97 bd
       0.18433592 0.29667145 -0.044012573 -0.073837616
0000e0 56 68 03 be 6e f9 8b 3e fa a2 59 3e 9e 94 cd bc
       -0.1283277 0.27338737 0.21253577 -0.02509528
0000f0 d6 d1 d5 bc 51 ed 1a 3d 62 e6 29 3e b1 b9 54 3e
       -0.026101034 0.03782398 0.1659179 0.2077396
000100 54 42 82 3e f3 ef f8 bd 27 bc 83 be 0a 20 9a 3d
       0.2544123 -0.12155142 -0.25729486 0.07525642
000110 ab a1 65 3c f6 16 8a bd a8 5a 41 be 59 b6 20 be
       0.014015595 -0.06742661 -0.18882239 -0.1569456
000120 d3 dd 8d be 80 b1 45 be d8 46 bd 3d 04 d4 bc bd
       -0.277083 -0.19305992 0.09242028 -0.09220126
000130 8b 35 39 3e 00 7f 81 bc 31 03 a4 be 1e 6b aa 3d
       0.18086831 -0.015807629 -0.32033685 0.08321212
000140 1c 7b 92 be 99 f7 a0 3d 6f 8c 4c be 4a 49 0f 3d
       -0.2860955 0.078597255 -0.19975446 0.034982003
000150 8d d4 85 3d c2 66 1f be 29 66 8f 3e 30 18 29 3e
       0.065346815 -0.15566543 0.2800763 0.16513133
000160 f3 bd 22 3e 9f 9b 2d 3e 9e ac 92 3e a1 be 79 be
       0.15892772 0.16953896 0.2864732 -0.24389125
000170 cb 6f 7c be 3c 1b 3a 3e 0a 55 cd bd ae 41 13 be
       -0.2465202 0.18174452 -0.100259855 -0.14380524
000180 b3 3a 8d 3e 0e 8b 4d be 86 cb 95 be a1 b3 98 be
       0.27583846 -0.20072576 -0.2925684 -0.29824546
000190 35 7d 53 be a4 43 89 3e f8 39 72 b9 08 2b 81 bd
       -0.20653231 0.26809418 -0.00023100513 -0.06307036
0001a0 c8 d3 30 bd 82 2f 23 be 7d 2b 83 be 25 5e 53 be
       -0.04317072 -0.15936092 -0.25619116 -0.20641382
0001b0 51 2d e3 3d 76 6a 52 3e 8e 93 3e be 3c 0a 65 3e
       0.11092628 0.20548424 -0.18610975 0.22367185
0001c0 b6 72 9d be f3 b8 31 3e 09 18 22 3e 59 f0 8f be
       -0.3075158 0.17355709 0.15829481 -0.28113058
0001d0 fe 9f 89 3e e7 c5 56 3e 49 bb 7c 3e cb 83 83 be
       0.26879877 0.20973931 0.24680819 -0.25686488
0001e0 9d b5 84 3e 20 b0 94 3e 4d be 82 be eb 78 b0 bd
       0.2591981 0.29040623 -0.25535813 -0.08616813
0001f0 ad b3 c7 3d c1 cc 34 3e 7b 11 57 be 3f 57 eb bc
       0.09751067 0.17656232 -0.21002762 -0.028728126
000200 91 ba 3e 3e d7 d2 ea 3d 81 d7 06 3e 4c a6 37 be
       0.18625857 0.11465996 0.13168146 -0.17934531
000210 c3 d9 ed 3d c4 e9 05 be 9d a2 1b be b0 4d 0b be
       0.116138004 -0.13077456 -0.15198751 -0.13603854
000220 96 8a c1 bd b5 6d 24 be 60 74 75 3e f2 26 72 be
       -0.09450261 -0.16057475 0.23970175 -0.23647669
000230 33 be 62 be 7c ee 44 be a8 7b 8a be b6 6c 48 3e
       -0.22142868 -0.192316 -0.27047467 0.1957272
000240 9a 12 87 3e 4c 29 c1 3c a1 51 2d 3d 00 2c 43 3e
       0.2638138 0.023579262 0.042314176 0.19059753
000250 2a 0b 83 3e a7 e0 76 3d b8 26 5d be 8f 50 4d bd
       0.25594455 0.06027284 -0.21596801 -0.050125655
000260 49 80 dc bd c7 81 7d 3d 0b 02 bc 3d d1 ae 5b 3e
       -0.10766656 0.061891343 0.09180077 0.21453406
000270 85 25 2a 3d da 4c ff bd ea 38 36 be cc 53 36 be
       0.041539688 -0.1246583 -0.17795148 -0.17805403
000280 86 b8 e2 3d 2d 46 9a 3e f3 ab d0 bb 8e 09 a4 bd
       0.11070351 0.30131665 -0.006368154 -0.08009635
000290 0c 43 03 bd 63 fb 0a be e2 20 18 be ae 15 91 3c
       -0.032046363 -0.13572459 -0.14856294 0.017710533
0002a0 33 ba d2 3d 9b a7 1b 3e 87 91 70 3e 8a 3b 94 bd
       0.10289421 0.15200655 0.23493014 -0.07237919
0002b0 86 ae db bb 60 6b 16 3e be ae e1 3d 19 45 89 be
       -0.0067041544 0.14689398 0.110196576 -0.2681053
0002c0 ab ff 8b be b9 19 e9 3d bc 0d 8d 3d 0e 1d 94 be
       -0.27343497 0.11381859 0.06887385 -0.28928417
0002d0 8c 85 9a 3e 8e 19 c0 bd c4 b8 ec bd 41 fb b3 3d
       0.30180013 -0.09379874 -0.11558679 0.08788157
0002e0 f4 b4 68 be 1e 94 3d 3e 7e b6 4d bd d9 1b 0a 3e
       -0.22725278 0.18513533 -0.050222866 0.13487186
0002f0 c0 18 d3 3d 55 fa 1b 3e bf 5b 80 3e f2 36 3a 3c
       0.10307455 0.15232213 0.25069997 0.011365639
000300 c6 0f 69 be d9 8f 31 3d 06 fe 93 be 71 62 c9 bd
       -0.22759923 0.043350074 -0.28904742 -0.09833229
000310 50 f5 ff bd a7 57 f9 3d 64 6a 5b bc 0b 4f 59 3e
       -0.124979615 0.121749215 -0.013392065 0.21221559
000320 a1 bf ee 3d d1 37 27 be 1d 22 2b be bb 0f fd 3c
       0.11657644 -0.16329886 -0.16712232 0.03089129
000330 6a ef 80 bc 54 76 65 3e 3e 50 68 be 2c 46 9e 3e
       -0.015739162 0.2240842 -0.2268686 0.30912912
000340 7b 96 cb bd 33 57 2f 3d 34 24 d3 3d bd 05 91 be
       -0.09940811 0.04280777 0.103096396 -0.2832469
000350 a3 e3 7b 3e 46 a3 87 bd d4 68 83 bb fa a4 e1 3c
       0.24598555 -0.06622939 -0.004010299 0.027544487
000360 19 6e 06 3e 74 84 75 bd a8 3d 97 be 8c 9e 19 be
       0.13127936 -0.05994077 -0.29539227 -0.15001887
000370 20 0a 96 3d 4d 3d f6 3d d4 8a 74 3e 2b ec aa 3d
       0.0732615 0.12023411 0.23881084 0.08345827
000380 17 ff 81 3e 94 01 a8 bd 3c 7c f3 bd 9c b8 69 3e
       0.2538993 -0.08203426 -0.1188893 0.22824329
000390 f0 8e 0a 3e 6d 5d 53 3e 79 00 3d bd c9 f2 0c be
       0.13531089 0.20641108 -0.04614303 -0.1376449
0003a0 31 f1 10 ba 9e 2c 53 3d 95 f5 d7 3d 5a f5 e7 3d
       -0.00055291044 0.051556222 0.10544888 0.11326094
0003b0 1b 52 93 be 42 02 42 be 93 cd 4c 3e b2 06 17 be
       -0.2877358 -0.18946174 0.20000295 -0.14748648
0003c0 42 56 94 be ab c4 aa bd 8c e2 22 3d 8f 7e 83 3e
       -0.2897206 -0.08338293 0.039766833 0.25682494
0003d0 b7 9a 2f bd 9a 49 88 3e c0 43 72 3d d4 a0 55 be
       -0.042872157 0.26618654 0.059146643 -0.20862132
0003e0 5b cd d6 bd c2 a4 8c 3e a7 95 28 3d 3f b5 f4 3d
       -0.10488387 0.2746945 0.041158345 0.119486324
0003f0 a2 ff 2d 3e 29 a0 a3 3e 5c fa fe bb a2 6d 59 bb
       0.16992047 0.3195813 -0.00778131 -0.0033176919

linear1.bias f4 [256]
000000 f6 8e 1a be 27 cc 38 be a6 2a 2b be 52 86 92 bd
       -0.15093598 -0.18046628 -0.16715488 -0.07154526
000010 a8 f2 72 be ed c7 6a 3e 56 2f d6 bd ce fc 74 3e
       -0.23725379 0.22927828 -0.10458247 0.23924562
000020 2e 0e 6f bd 9b 42 a3 3b 3d 1d 8e 3e 7f f1 82 be
       -0.058363132 0.004982305 0.27756682 -0.25574872
000030 1f 17 57 3e 03 17 0e bd 65 11 26 bd 24 45 6b 3d
       0.21004914 -0.034689914 -0.040543932 0.057438985
000040 2e 91 86 be 05 b6 40 3e 77 e6 d5 bd 94 d1 83 be
       -0.26282638 0.18819435 -0.10444348 -0.25745833
000050 c4 98 10 3e 11 29 97 be ac 9e cb 3d b5 0f 8b be
       0.14120775 -0.2952352 0.09942374 -0.2716042
000060 03 2c 30 be 66 c6 76 3e ba a0 d0 3c 7f 98 29 3e
       -0.17204289 0.2409912 0.025467265 0.16562079
000070 9d da 59 be 79 11 45 3e f5 f2 96 3d 0e 28 04 3e
       -0.212748 0.19244947 0.07370559 0.12905905
000080 01 0c 94 be 43 4c 85 be 5d f3 84 3e 5b 88 db bd
       -0.28915408 -0.26034746 0.2596692 -0.10719367
000090 e7 1a 97 be 36 11 e0 3d 0e 4a 59 be ee 73 9e be
       -0.29512712 0.10940783 -0.21219656 -0.30947822
0000a0 cb 93 68 be ee f4 94 3e 31 e1 04 bd 50 88 59 be
       -0.22712629 0.29093117 -0.03244132 -0.21243405
0000b0 f0 6e 2e 3e 2d c7 41 be 99 9d 59 3e 60 1d 25 3e
       0.17034507 -0.18923636 0.21251525 0.16124487
0000c0 be 7d 3a 3d 27 1d 5b 3e 19 25 76 bd f0 3b fd bd
       0.045530073 0.2139784 -0.060093973 -0.12364948
0000d0 1e d8 a0 3d d5 e4 4b 3e 6d 5d 70 3e 21 76 59 be
       0.07853721 0.19911511 0.23473139 -0.21236469
0000e0 3e e0 51 3e ab 7f 9c be a6 1a 56 3d 88 a5 40 3c
       0.20495698 -0.30566153 0.052271508 0.011758216
0000f0 9f 4c 8c 3e 03 7f 51 3e 19 eb 5e 3e 93 27 30 3d
       0.27402207 0.20458607 0.2176937 0.04300649
000100 7f da 19 be 5b ca 10 be 0b f7 28 3e 16 99 e1 3d
       -0.15024756 -0.14139692 0.1650049 0.11015527
000110 9a 80 28 bd c6 f6 5a 3e f7 fe 74 be 4b 01 fa 3d
       -0.04113827 0.21383199 -0.23925386 0.12207278
000120 2c 9a 2d be 7c d1 f1 3b fe a5 01 3e 67 3e 77 3e
       -0.16953343 0.007379709 0.12660977 0.24144898
000130 6e 4e 36 be ca f7 93 be ac dc 37 be 56 0e 58 3e
       -0.17803356 -0.28899986 -0.17955273 0.21099219
000140 72 ff a2 3c 9b 3e 71 3c 7d a4 92 bd e5 7c a5 3e
       0.019897196 0.014724399 -0.0716028 0.3232185
000150 dc bf 1b be db 7e cd 3d 46 4a d1 3d b7 e5 35 be
       -0.15209907 0.100339614 0.10219245 -0.1776341
000160 b1 f1 78 3e 0f ab cb bd 55 9d 54 3e c6 c6 e3 bd
       0.24310948 -0.09944736 0.20763142 -0.111218974
000170 13 59 97 be 25 d2 5d 3e 60 9b 5c be e1 a4 76 be
       -0.29560146 0.21662195 -0.21543646 -0.24086334
000180 2e 14 8e be 5d d2 22 3d 92 ac 02 3e 3a c2 5d 3d
       -0.2774977 0.0397514 0.12761143 0.054140307
000190 8f 27 52 be c8 37 99 3e a3 02 04 be cf 6c b9 3d
       -0.20522903 0.2992537 -0.12891631 0.09053957
0001a0 4c c7 1f bd f7 50 f2 bc 40 79 26 3e e5 90 54 be
       -0.039008424 -0.029579623 0.1625719 -0.20758398
0001b0 61 3a b7 bd 7d d5 ce bd c9 6e 14 be ac 78 dd 3b
       -0.08946682 -0.100993134 -0.14495386 0.00675877
0001c0 37 34 8d 3c 0c ec a4 3d 47 56 7d 3c a6 5c 22 be
       0.017236812 0.08052835 0.015462465 -0.15855655
0001d0 e4 2a 37 3e 77 7b 8c be 69 c3 96 3d cd 0f 05 bd
       0.17887455 -0.27437946 0.0736149 -0.032485772
0001e0 f0 f6 43 be bf 5b 22 3d 40 ea f4 bd 05 c7 4f be
       -0.19137168 0.039638277 -0.11958742 -0.20290764
0001f0 14 c0 d2 3d 64 c1 0f be 00 2a 33 be f4 a9 a4 3d
       0.10290542 -0.14038616 -0.1749649 0.080402285
000200 53 8c 2a bd 4f e6 da bd 8c 47 4c bc e1 e3 83 3e
       -0.04163773 -0.10688459 -0.01246823 0.25759795
000210 e8 ff a0 bd ae ff 80 3e 17 63 19 3e 8a 65 a9 bd
       -0.0786131 0.25195068 0.14979206 -0.0827132
000220 46 fc 86 3e 14 3d 52 3e 6d 31 8a 3e 4d 54 87 bd
       0.26364344 0.20531112 0.26990834 -0.06607876
000230 10 df 46 be 8c 52 70 3e 51 23 dc bd 69 e3 64 3e
       -0.19421029 0.23468989 -0.107489236 0.22352375
000240 62 7e 8d be e0 e7 8b be 6d 7e d2 bc 98 3a 6c be
       -0.27635485 -0.27325344 -0.02569505 -0.23069227
000250 72 7e 18 be 1e 0f 54 3e ff 6d 93 3e 5f 79 36 be
       -0.14891985 0.20708892 0.28794858 -0.17819737
000260 2f b3 fa bc 22 28 e8 3d 9d 0e 92 3e 4b 5e 23 be
       -0.03060302 0.1133578 0.28526774 -0.15953939
000270 cf ef ef 3d fb 51 1c 3e 58 9a 8d bc 7c ac 97 bd
       0.11715662 0.15265648 -0.01728551 -0.07405946
000280 2f d4 8e be 0d 7a 93 be a0 80 d0 3c d2 ba 2a 3e
       -0.27896258 -0.28804055 0.025451958 0.16672829
000290 ea e1 37 be ff 56 17 3e 9c 15 11 be 6b c1 86 3e
       -0.17957273 0.1477928 -0.141684 0.2631944
0002a0 df 86 75 3c 74 e2 fd 3d b9 fe 1a 3e 88 96 ff bd
       0.014985769 0.12396708 0.15136231 -0.124798834
0002b0 23 78 89 3e ca a6 88 be d5 b7 62 3e 73 32 40 3e
       0.2684947 -0.2668975 0.22140439 0.18769245
0002c0 e0 6f 29 be 4a 68 f5 3d 0b 12 4b 3e b2 9e 8e 3e
       -0.16546583 0.11982782 0.19831102 0.2785545
0002d0 5f be 5a 3d a6 3d f4 3d 11 90 dc bc 96 78 b3 bd
       0.05340421 0.11925821 -0.026924165 -0.08763234
0002e0 96 fc 92 3e 37 bf 3f bd 56 08 ae bb 8f bd 00 3e
       0.28708333 -0.046813216 -0.0053110523 0.12572311
0002f0 5a 6b ec bd 6e 5b da bd 68 78 3c bc 92 a7 10 be
       -0.11543913 -0.1066197 -0.011503316 -0.14126423
000300 9e d3 00 bd 23 39 da bd e5 7a 31 3e a8 f3 86 3e
       -0.031451814 -0.10655429 0.17332037 0.2635777
000310 ca 94 8e bd 15 a3 39 3e 0c 85 2c 3e 24 b5 4a 3d
       -0.06961973 0.18128617 0.16847628 0.049489155
000320 e1 e4 1a 3e 59 2c d1 3d 02 54 04 3e db 69 34 3e
       0.15126373 0.10213537 0.12922671 0.17618506
000330 5d e7 5b be ad 90 57 be 98 58 b7 3a c1 85 81 be
       -0.21474977 -0.21051283 0.0013988195 -0.2529736
000340 11 b4 72 be 5f cf 98 be 41 b2 8e be 9c 43 5a 3e
       -0.23701502 -0.29845712 -0.27870372 0.21314853
000350 b6 30 0a be 34 7d e1 bd fb bf a0 be d3 a1 96 3e
       -0.13495144 -0.11010209 -0.3139647 0.29420337
000360 35 8f 13 3e 2e 87 2b 3c b0 72 44 be b6 09 81 be
       0.14410098 0.010469241 -0.19184375 -0.2520272
000370 b1 c0 0f be d8 16 e7 3d 86 d7 7a be b7 97 7e be
       -0.1403835 0.11283654 -0.24496278 -0.24862562
000380 11 b4 c0 bc 53 d7 85 3e 9f cd 98 bc d6 e5 42 3e
       -0.023523362 0.26140842 -0.018652735 0.19032988
000390 2c b2 6d 3e 8a 54 79 be 18 b4 6a 3c 5e d4 9b be
       0.23212498 -0.24348655 0.014325164 -0.3043546
0003a0 a2 7e 9e bd bd dc 81 3e 7d fb 96 bd ea 6a eb 3d
       -0.07738997 0.25363722 -0.07372186 0.114950016
0003b0 13 65 11 3d cd d8 8a 3e 61 f4 58 be 01 16 87 be
       0.035496783 0.2711853 -0.21186973 -0.26383975
0003c0 61 5b e3 bd e9 7a 69 be 7c 16 9d 3e 7b aa 79 bc
       -0.111014135 -0.22800793 0.30681217 -0.0152384
0003d0 ed 18 a1 be 94 1d 06 be 32 ce e2 bd 12 63 68 be
       -0.3146433 -0.1309722 -0.11074485 -0.22694042
0003e0 53 ba 9b be e3 c7 91 be 30 c3 8c 3e b7 a6 07 bc
       -0.30415592 -0.28472814 0.27492666 -0.008279494
0003f0 cc c3 79 be 6c 93 a5 bd 3d 35 12 be 26 cf 20 3c
       -0.24391097 -0.08084759 -0.14278121 0.009815013

linear2.weight f4 [3, 256]
000000 ad 95 88 bc 9d de b0 3c 39 4d 38 bd a5 6c b7 3c
       -0.016672933 0.021590525 -0.04499552 0.022390673
000010 27 c3 4b bd b0 c4 5b bd ee 34 32 38 ab 9d 8c bd
       -0.04974666 -0.053654373 4.24878e-05 -0.0686601
000020 e9 45 2b bc 3f 12 0a 3a 9a 7d 30 3d 40 1f 9a bd
       -0.01045368 0.0005267001 0.043088533 -0.07525492
000030 f2 a3 4b bd 27 4f 10 bd 1d f6 82 3c dd e7 0a 3c
       -0.049716897 -0.035231736 0.015986497 0.008478132
000040 52 af b2 3c 11 48 dc bc 2d e9 11 bd 3b 80 41 b8
       0.021812115 -0.026889833 -0.035622764 -4.613421e-05
000050 c6 38 2b 3d 33 6b 08 3c 74 20 fa bc c3 72 8c bd
       0.04180219 0.00832634 -0.030533053 -0.068578266
000060 b0 83 8b 3c c6 13 de bc 93 7e 0f bd a2 86 89 bd
       0.017030567 -0.027109038 -0.03503282 -0.06715132
000070 08 43 a1 bc 8b 26 c3 bc d7 5f c3 3c ea 73 7e 3c
       -0.019685283 -0.02382209 0.023849411 0.015530566
000080 8b db d8 bd 16 af b3 3c 2d a0 2b bc b0 c3 95 3d
       -0.105887495 0.021934073 -0.010475201 0.07312715
000090 ac ac 7a 3c cc 07 0f 3d 48 b8 8b bc 72 e0 5e 3d
       0.015299957 0.034919545 -0.017055646 0.054413266
0000a0 58 09 27 bd 9e b5 51 bd 26 7c 90 bd da 51 65 ba
       -0.040780395 -0.051198594 -0.070549294 -0.00087478536
0000b0 4a 4f 5a bd c2 2c 32 bd ad 80 0a bd a4 2a 61 bd
       -0.053298272 -0.043499716 -0.03381412 -0.054972306
0000c0 52 ff e9 3b cd f3 73 3c f6 25 a6 bd 59 73 aa 3b
       0.0071410323 0.01488967 -0.08112709 0.005201739
0000d0 42 db 8b bd ae 3f 1d 3d 4e e1 33 3d a0 16 56 3b
       -0.068289295 0.038390808 0.04391604 0.0032667294
0000e0 36 7c 16 3d ab 22 05 ba 77 78 0f 3c 3f fc 90 3b
       0.03673955 -0.00050787133 0.008756748 0.0044246013
0000f0 c1 09 38 3d 7b a5 79 bd e9 b1 ac bc db 3f 8a bd
       0.044931177 -0.06094883 -0.021080928 -0.06750461
000100 e5 ba f3 3c 55 f9 33 3d b5 25 ac bd e3 04 4f bd
       0.029752204 0.043938953 -0.084056295 -0.05054177
000110 c3 19 37 bd e8 dc a2 3b cc a0 15 bd 3c be d0 3c
       -0.044702303 0.0049701817 -0.0365303 0.025481336
000120 91 c4 4d bd 4e 0d b7 bc c2 b2 f4 bb 00 77 15 bc
       -0.05023629 -0.022345211 -0.0074675987 -0.00912261
000130 cf ee 01 3d 20 cc 95 bc ed a2 c6 3c bd 68 41 3d
       0.031721886 -0.018285811 0.024247611 0.047219027
000140 61 4d 62 3b 23 bf 54 3c 0f 6d 79 3b d0 94 5d bd
       0.0034530985 0.012985024 0.0038059389 -0.054096997
000150 5e 83 a7 bc 35 2e df 3c 93 df 89 bc 6b 92 13 3c
       -0.020448383 0.027243713 -0.016830241 0.009007077
000160 74 50 8b bd 7c 56 bc 3c a0 78 31 bd f2 43 1f 3d
       -0.068024546 0.022990458 -0.043327928 0.038883157
000170 de d4 21 bd f2 ec 93 bd f9 85 e0 3c 1e ae d5 bb
       -0.039509647 -0.07222928 0.027407633 -0.0065210005
000180 c0 03 51 3b d7 c8 3d bd 8a 35 98 bc 2e b5 dc bc
       0.0031893104 -0.046334114 -0.018580217 -0.026941862
000190 4b 0a c5 3c fb d2 80 bd 43 b6 b4 bc a0 86 ca bc
       0.02405276 -0.06290241 -0.022059565 -0.024722397
0001a0 a6 5b d2 3b 43 ad 0e 3c c0 30 11 bd c2 ee 12 bd
       0.0064196168 0.008708301 -0.035446882 -0.03587223
0001b0 6c 2e 57 3d a6 93 2f bd 95 8e 82 bc 27 b1 5f bd
       0.052534506 -0.042865418 -0.015937129 -0.054612305
0001c0 b5 48 35 3c 00 c9 4d 3c ec a4 4d bc 98 8c 26 3c
       0.011064698 0.012560129 -0.0125515275 0.010165356
0001d0 ea 9c fa bc 58 1c fe bc b1 73 df bc ff 4a 49 bd
       -0.0305924 -0.031019375 -0.027276846 -0.049143787
0001e0 c8 ba 09 3d 72 23 73 bd 16 96 ea bb 5d db 35 3b
       0.033625394 -0.059359975 -0.007159005 0.002774916
0001f0 35 33 ab bd b0 51 b6 bb e2 b4 55 3d 60 25 ca 3c
       -0.08359376 -0.005563937 0.052174456 0.024676025
000200 3c a6 57 bd c4 07 19 bd a0 63 51 3d 69 c2 49 bd
       -0.052648768 -0.03736092 0.0511204 -0.04925767
000210 ab f9 13 3d af 63 23 3d 3b bd 15 bb 0b b8 f8 bc
       0.036126774 0.039889988 -0.0022848386 -0.030361196
000220 71 39 54 3d 11 36 e0 bc d4 19 89 bd 98 31 80 3d
       0.051812593 -0.02736953 -0.066943794 0.06259459
000230 08 54 3d bd 7e ea 40 bd 77 63 7b bd 8f fa 5c bd
       -0.046222717 -0.04709863 -0.061374154 -0.05394989
000240 28 94 74 3d 2f 93 8c bc 3f 5e 8f 3c e8 ae a8 3c
       0.059711605 -0.017160026 0.017500995 0.020591214
000250 61 c0 21 bb 81 fd f8 3c 04 d1 eb 3b b4 90 3f 3d
       -0.0024681317 0.030394318 0.0071965475 0.04676886
000260 ac c7 c8 bc a2 41 f5 3c 79 ae 5b 3d 91 ee 35 3d
       -0.024509273 0.029938523 0.053633187 0.044416968
000270 f7 8e 4d 3d 29 fa 8b bd bb 5d 11 bc 80 70 19 bd
       0.05018517 -0.06834824 -0.008872445 -0.037460804
000280 54 a5 31 bd d5 ea 49 3c 1a 77 8b 3c 87 0c 9d bd
       -0.04337056 0.012324055 0.017024565 -0.07668405
000290 e0 6c 99 bc 87 38 65 bd b5 6e 26 bd dc 04 7d bd
       -0.018728673 -0.05596211 -0.040632922 -0.061772212
0002a0 ca e9 93 bb a2 7f d7 bc f5 e7 a5 bd 1d 8f 5f 3b
       -0.004513954 -0.026305977 -0.08100883 0.0034112402
0002b0 80 33 76 bc 11 8a d0 3c be 0d 50 bd 22 2f aa bc
       -0.015026927 0.02545646 -0.050794356 -0.020774428
0002c0 2b 6e 23 3c 02 98 3d bd ee 98 54 bd d0 2d 4a bc
       0.009974997 -0.046287544 -0.051903658 -0.012340024
0002d0 f0 7f 1d ba 25 de 3c bb a1 a6 6d 3d 2f 01 34 3d
       -0.0006008139 -0.0028818932 0.058020238 0.04394644
0002e0 38 c3 b4 bc 60 74 e7 3c 7f e7 cd bb 03 31 4c bd
       -0.022065744 0.028253734 -0.0062837 -0.04985143
0002f0 88 2f 37 bd e8 1c 60 bc 0b d7 10 bd 16 94 ed bc
       -0.044723064 -0.013678767 -0.03536133 -0.029001277
000300 c9 27 29 bc 1d 8f f8 3c 76 5d 13 bd ba 6f 5f bd
       -0.010324427 0.03034168 -0.035977803 -0.05454991
000310 2a 1c dc 3c 6c 2d 4b bd 58 44 e6 3c 48 e5 5b bd
       0.026868898 -0.049603865 0.02810876 -0.053685457
000320 fa 49 07 bd 61 59 3d bd 6e 0c 1b bc fd 79 c2 3c
       -0.033029534 -0.046227816 -0.009463413 0.02373981
000330 6a b6 f2 3c ec 44 43 3a 4b eb 92 bd 33 a9 2c bc
       0.029627997 0.000744893 -0.07173785 -0.010538387
000340 ae 1f 79 bd 12 ba c1 3c a2 fc 95 bd ce 94 34 3d
       -0.060821228 0.023648296 -0.073235765 0.044087224
000350 a3 2c 91 ba a5 a1 48 3d cb 44 3a bb 16 d9 4b bc
       -0.0011075925 0.04898228 -0.0028422351 -0.012441894
000360 9e cd 2b bd c7 76 84 3c 36 b6 56 bd 60 9e 56 3c
       -0.04194414 0.016169919 -0.052419864 0.013099283
000370 fb 58 74 3c 72 fd 34 bd c7 a7 42 3d f3 e2 59 bd
       0.014913793 -0.044187017 0.047523286 -0.05319495
000380 d8 10 e4 3c 15 ae f6 bc fe e4 f7 3c e5 79 07 3d
       0.027840063 -0.030112306 0.03026056 0.033075232
000390 3e 3f 5a bc 1a cf 60 bd fd b9 90 bc 24 82 05 bd
       -0.013320742 -0.054885007 -0.017666811 -0.032594815
0003a0 d2 47 5f 3c 63 02 87 bd 67 12 da 3c 2d 94 06 bd
       0.013627963 -0.06592252 0.026620103 -0.032856155
0003b0 d6 ed 92 bd 0b 67 9a bd 72 3a 79 bd 21 e0 ca ba
       -0.0717427 -0.07539185 -0.060846753 -0.0015478173
0003c0 36 9a ba bc e4 f2 45 bd 6c ef 6f bb 89 d1 77 3d
       -0.022778612 -0.04832734 -0.0036611212 0.060502563
0003d0 f8 b4 dc bc dc df 68 3d a1 43 61 3c 94 25 86 bd
       -0.026941761 0.056854114 0.013749034 -0.06550136
0003e0 3c 80 03 3d 81 a0 80 bb ce ca 0a 3d 2c f6 a6 bc
       0.032104716 -0.0039253836 0.033884816 -0.020381056
0003f0 b3 bc 1c bd 6d 9d 2d bd 2f 08 8c bd fc 11 71 3d
       -0.038265895 -0.04238646 -0.068374984 0.05885504

linear2.bias f4 [3]
000000 a8 d5 f5 3b 67 93 9c bd 8d bb 27 bd
       0.0075022765 -0.07645302 -0.040950347
