Deep Q Learning/model/model.pth (torch, 16787 bytes, 4 tensors)

linear1.weight f4 [256, 11]
0	0x3d52a810	0.05142981
1	0xbdef4222	-0.11682536
2	0x3e6943c8	0.22779763
3	0xbe7cf095	-0.2470115
4	0xbe78ae76	-0.24285302
5	0xbd71fe34	-0.059080318
6	0xbdc3d817	-0.095627
7	0x3d5874a0	0.052845597
8	0xbe0312bf	-0.1280012
9	0x3dcaad81	0.098963745
10	0xbe2b63d1	-0.16737296
11	0x3e02408e	0.12719938
12	0xbde1ff4f	-0.110350244
13	0x3c701ee0	0.014655799
14	0xbe2cfff9	-0.16894521
15	0xbe83f1c4	-0.2577039
16	0xbd4ee450	-0.050510705
17	0xbe6e35dc	-0.23262733
18	0x3e132ea4	0.1437326
19	0x3e99df3a	0.3005312
20	0x3e683158	0.22675073
21	0xbe3bba52	-0.18332794
22	0x3e6ba818	0.23013341
23	0x3e5652c8	0.20930016
24	0x3dbb3080	0.0914011
25	0x3e8b2f96	0.27184743
26	0xbe53d07a	-0.20684996
27	0xbe81af77	-0.25329182
28	0xbe820add	-0.25398913
29	0x3dd698e9	0.10478384
30	0x3c839b60	0.0160653
31	0xbe2a6442	-0.16639808
32	0x3e1d681f	0.1537175
33	0xbdd0556c	-0.10172543
34	0xbe527530	-0.20552516
35	0x3df15e44	0.11785558
36	0xbdf070ec	-0.11740288
37	0x3db023b5	0.086005606
38	0xbe8d9bf6	-0.2765805
39	0xbe0c9adc	-0.13730949
40	0x3dfbf8a4	0.12303284
41	0xbe8c6a59	-0.27424887
42	0x3da291b6	0.079379484
43	0x3dc3f417	0.09568041
44	0x3e5995b8	0.2124852
45	0xbe7b1325	-0.24519022
46	0xbd9709aa	-0.0737489
47	0x3da23c7d	0.079216935
48	0x3e622c33	0.22087173
49	0xbe77e44f	-0.24208187
50	0x3cf7af83	0.030235058
51	0xbd6425df	-0.05570018
52	0xbe5f7838	-0.21823204
53	0xbe721399	-0.23640288
54	0xbe22612e	-0.15857384
55	0x3e4d1bd0	0.20030141
56	0x3e2879e8	0.16452754
57	0xbd7580b8	-0.05993721
58	0xbe91405c	-0.28369415
59	0xbe935388	-0.28774667
60	0x3e42433c	0.1897096
61	0x3d9d1774	0.07670489
62	0xbe4f956a	-0.2027184
63	0xbe8f669a	-0.28007966
64	0x3e16f152	0.14740494
65	0x3b75dd00	0.003751576
66	0xbe8bfd42	-0.27341658
67	0x3e8a5076	0.27014512
68	0x3e939868	0.28827214
69	0x3c840240	0.016114354
70	0xbdee6d08	-0.1164189
71	0x3d8887b6	0.0666651
72	0xbcd9d2f2	-0.026589844
73	0x3d0d59b1	0.034509365
74	0x3de38aa8	0.11110431
75	0xbe840564	-0.25785363
76	0xbe79294f	-0.24332164
77	0x3e981f84	0.29711545
78	0xbe47496c	-0.19461602
79	0xbe973055	-0.29529062
80	0xbe261de2	-0.16222337
81	0x3df6effd	0.12057493
82	0x3e8493ca	0.25894004
83	0xbdf50f53	-0.119658135
84	0x3d354244	0.04425265
85	0xbe711c9f	-0.23546074
86	0x3d118b1d	0.03553306
87	0xbe3f8cfe	-0.18706128
88	0x3e5cec7c	0.21574587
89	0xbde68834	-0.112564474
90	0xbd916e18	-0.07101077
91	0xbe5792b1	-0.21052052
92	0x3e50eeb6	0.20403561
93	0xbe8980bd	-0.26856032
94	0x3e7f4c6d	0.24931498
95	0xbdb79d4c	-0.08965549
96	0x3e09a160	0.13440466
97	0xbdd128c2	-0.10212852
98	0xbd90887a	-0.07057281
99	0x3dc03e90	0.09386933
100	0xbd8e37f2	-0.069442645
101	0x3e6385e0	0.22219038
102	0x3e4c695f	0.19962071
103	0xbe82607d	-0.2546424
104	0x3d40063c	0.046880946
105	0xbe427fa8	-0.1899401
106	0x3d2cfd70	0.042233884
107	0xbde86464	-0.11347273
108	0xbe615d72	-0.22008303
109	0x3e081bb6	0.13291821
110	0xbe37d372	-0.17951754
111	0x3d8f97c9	0.070113726
112	0x3dda2fbc	0.10653636
113	0x3e5f7e03	0.21825413
114	0x3e798881	0.24368478
115	0x3e1730aa	0.14764658
116	0xbd1ebb20	-0.038752675
117	0xbe44d5c2	-0.19222167
118	0x3d4172c8	0.047228605
119	0x3c0730cc	0.00825138
120	0x3e0afdef	0.1357343
121	0xbdb6a800	-0.08918762
122	0x3e91293e	0.28351778
123	0xbdd33916	-0.10313623
124	0xbe41bd08	-0.18919766
125	0xbdf4820a	-0.119388655
126	0xbdbc66b8	-0.091992795
127	0xbe4783ac	-0.19483823
128	0xbe295c9b	-0.16539232
129	0xbe725374	-0.23664647
130	0xbe2180c1	-0.15771772
131	0xbe1a1dc7	-0.15050422
132	0xbe95e727	-0.29277918
133	0x3ddbc546	0.10730986
134	0x3e8c2e52	0.2737909
135	0xbdb63914	-0.088976055
136	0x3e0150fd	0.12628551
137	0xbd4175cb	-0.047231477
138	0x3d43817f	0.04773092
139	0xbe40b1a9	-0.18817772
140	0xbe5e45f2	-0.2170637
141	0xbc63487f	-0.013872265
142	0xbe7de655	-0.24794896
143	0xbc712500	-0.014718294
144	0xbdd946bc	-0.10609195
145	0x3dd11404	0.10208896
146	0x3d0b1de1	0.03396404
147	0xbe20baf7	-0.15696321
148	0xbce1cfd0	-0.027564913
149	0xbe8a7219	-0.27040175
150	0x3e84894f	0.25886008
151	0x3e824ddc	0.25450027
152	0xbde1272d	-0.109938
153	0xbde30374	-0.11084643
154	0x3e813554	0.25236
155	0xbddb97da	-0.10722323
156	0x3e0ae806	0.13565072
157	0x3e92e740	0.28692055
158	0xbe7a2b26	-0.24430522
159	0xbe5380b1	-0.2065456
160	0x3e4d76b9	0.2006482
161	0x3ab40ae2	0.0013736153
162	0xbda559d2	-0.080737725
163	0xbe345fb0	-0.17614627
164	0x3c3a0c16	0.011355421
165	0x3e20f840	0.157197
166	0x3e7e4a96	0.2483314
167	0x3e1ba4a6	0.15199527
168	0xbe64eaa5	-0.22355135
169	0xbd9a818d	-0.07544241
170	0x3e562fe3	0.20916705
171	0xbe85365e	-0.2601804
172	0x3e3a02de	0.18165156
173	0xbe38362f	-0.1798942
174	0x3d376e6e	0.04478305
175	0xbc821cc0	-0.01588285
176	0x3e7eecd0	0.24895024
177	0xbdcf3596	-0.101176426
178	0x3e27529e	0.1634011
179	0xbe433c53	-0.1906598
180	0xbe4bc4fb	-0.19899361
181	0xbb53a002	-0.0032291417
182	0x3dc9cad0	0.098531365
183	0x3d0af72e	0.033927135
184	0x3e21b43e	0.15791413
185	0x3e88e2fc	0.26735675
186	0xbe49d91a	-0.19711724
187	0xbbe56880	-0.0070009828
188	0xbd1cfa40	-0.038324594
189	0xbe9886b5	-0.29790273
190	0x3e0992e2	0.13434938
191	0xbcd49b50	-0.025952965
192	0xbe6f35b8	-0.23360336
193	0xbd758364	-0.059939757
194	0xbe8e06e0	-0.2773962
195	0xbe98e803	-0.2986451
196	0xbdf18e3a	-0.11794706
197	0x3b2d8500	0.002647698
198	0x3e28b4e4	0.16475254
199	0xbe39ea20	-0.18155718
200	0xbd808342	-0.062750354
201	0xbe4c05bc	-0.19924062
202	0x3e69306c	0.22772378
203	0x3e7e721f	0.24848221
204	0xbdbc211a	-0.09186001
205	0x3e282fe0	0.16424513
206	0xbe61b5fc	-0.22042078
207	0xbe5893a4	-0.2115007
208	0xbe994a14	-0.2993933
209	0x3e055c26	0.13023433
210	0x3e8b79f6	0.27241486
211	0xbce4a3d0	-0.027910143
212	0xbccdf5ba	-0.025141586
213	0x3d93cba3	0.07216575
214	0x3d9f754d	0.07786045
215	0x3e1384aa	0.14406076
216	0xbe936e59	-0.28795126
217	0x3deb6e8c	0.114956945
218	0xbc18e924	-0.009332929
219	0x3d9d3464	0.07676008
220	0x3b082500	0.0020774007
221	0x3e642157	0.22278343
222	0x3e194ed6	0.1497148
223	0xbe828cec	-0.2549814
224	0xbe11ed0b	-0.14250581
225	0xbe895d33	-0.26828918
226	0x3d9b0ab3	0.075704
227	0x3e082eca	0.13299099
228	0x3df9f2c8	0.1220451
229	0xbe0d11a2	-0.13776258
230	0x3dcf00ec	0.10107598
231	0xbe08496f	-0.13309263
232	0x3d19d378	0.037555188
233	0x3e9823c2	0.2971478
234	0x3e844c72	0.25839573
235	0xbe15fc9f	-0.14647149
236	0xbe04408a	-0.12915245
237	0x3e26d998	0.16293943
238	0xbe317913	-0.17331342
239	0x3e8731ba	0.26405126
240	0xbe3da518	-0.1852001
241	0xbe552e42	-0.20818427
242	0xbd08ff48	-0.03344658
243	0x3e445dfe	0.1917648
244	0x3db7f7ec	0.08982834
245	0x3e93b9c0	0.28852654
246	0xbdf92822	-0.12165858
247	0xbe824606	-0.2544405
248	0x3e914cb9	0.28378847
249	0xbe1602cc	-0.14649504
250	0x3dc7cb2c	0.09755549
251	0x3e1f5b48	0.15562165
252	0x3e832532	0.25614315
253	0x3c50d260	0.01274547
254	0xbe31ac95	-0.17350991
255	0x3e8f1602	0.27946478

linear1.bias f4 [256]
0	0x3e30f95b	0.17282622
1	0xbdec19ef	-0.11528384
2	0xbd8ff85c	-0.07029793
3	0xbe551567	-0.20808946
4	0x3e47e7ef	0.1952207
5	0xbe5c7542	-0.21529105
6	0x3d8878cd	0.06663666
7	0x3e6cd2fe	0.23127362
8	0x3e935037	0.28772137
9	0x3e077b2f	0.13230585
10	0x3d66e713	0.056372713
11	0x3d001eb8	0.031279296
12	0x3e5962f5	0.21229155
13	0x3d766dff	0.060163494
14	0xbdff9b04	-0.12480739
15	0xbcea72ce	-0.028619196
16	0x3d97db20	0.07414842
17	0xbe53417a	-0.20630446
18	0xbe1b26e0	-0.15151548
19	0x3c366016	0.011131307
20	0xbc95863e	-0.018252488
21	0x3dc55fb3	0.09637394
22	0x3e4453f5	0.19172652
23	0x3e81a384	0.25320065
24	0xbdcefd25	-0.10106877
25	0x3cbac4f7	0.022798998
26	0xbe0ed465	-0.1394821
27	0xbd6f3071	-0.058395807
28	0x3e1f63d7	0.1556543
29	0xbe3031ca	-0.17206493
30	0x3e3eabbe	0.18620202
31	0x3ced023c	0.02893173
32	0xbe41b9ba	-0.18918505
33	0x3e5ae0bb	0.2137479
34	0x3e9083a9	0.2822545
35	0x3d18e6b6	0.037329398
36	0x3e63efbb	0.22259419
37	0x3e469b7a	0.19395247
38	0xbbdd27a5	-0.0067491108
39	0xbe6ebf11	-0.23315074
40	0x3e135ad6	0.1439012
41	0x3cdf1410	0.027231246
42	0x3e4d711c	0.20062679
43	0xbdf695f2	-0.120403185
44	0xbdb66249	-0.08905465
45	0xbd4ff91f	-0.05077469
46	0xbe8dc424	-0.27688706
47	0xbe191ce2	-0.14952424
48	0xbd570dbc	-0.052503332
49	0xbe388e0b	-0.18022935
50	0xbe8d9b03	-0.27657327
51	0xbe7455de	-0.2386088
52	0xbe0a5ae7	-0.13511239
53	0xbce86201	-0.028367044
54	0x3a97d94c	0.0011585145
55	0xbe2ae8d2	-0.16690376
56	0xbd9fa3ad	-0.077948906
57	0x3e85e2bd	0.2614955
58	0x3c3049c5	0.0107597755
59	0x3ca72bde	0.02040666
60	0x3dcca807	0.09992986
61	0x3dd6c86b	0.104874454
62	0x3ca041d7	0.019562645
63	0x3e37360b	0.1789171
64	0xbe7644cc	-0.24049681
65	0x3e1ad317	0.15119587
66	0x3d8a4494	0.067513615
67	0xbe37ad7e	-0.17937276
68	0x3d686785	0.05673935
69	0x3e159d1c	0.14610714
70	0x3de941a8	0.11389476
71	0x3e2b6248	0.1673671
72	0x3d84e10b	0.06488236
73	0xbe51c651	-0.20485808
74	0x3e2d3130	0.16913295
75	0x3e5d6490	0.21620393
76	0x3e1632cd	0.14667816
77	0x3def52a3	0.116856836
78	0x3e466326	0.1937376
79	0x3e9610fb	0.2930983
80	0x3ddc0d1b	0.10744687
81	0x3dafcbaa	0.08583768
82	0x3e8e7845	0.27826133
83	0x3e4c23a2	0.19935468
84	0x3e73c743	0.23806481
85	0x3e56ace3	0.20964389
86	0x3e655d9f	0.22398995
87	0x3d9a0a47	0.075214915
88	0x3e54909c	0.20758289
89	0x3db3b685	0.08775047
90	0x3e2dc6da	0.16970387
91	0xbdb6c2b3	-0.08923855
92	0x3bd89d26	0.0066105304
93	0xbd8716fd	-0.065961815
94	0x3e4d453f	0.20045947
95	0x3e1c1acc	0.15244597
96	0xbd901e4b	-0.07037028
97	0x3dece6cf	0.11567461
98	0xbe237561	-0.15962745
99	0xbe1d87b5	-0.153838
100	0x3d37dd13	0.044888567
101	0xbe36892e	-0.17825767
102	0xbdebe4ff	-0.11518287
103	0x3da50bea	0.08058913
104	0x3d859e24	0.065243036
105	0x3dd04df8	0.10171121
106	0xbcbb5ed3	-0.022872364
107	0xbe16e9da	-0.14737645
108	0x3e4ce825	0.20010431
109	0x3e4af747	0.19820891
110	0x3e1ef7ff	0.1552429
111	0x3e735dfb	0.2376632
112	0xbe0364d3	-0.1283143
113	0xbe8054f9	-0.2506483
114	0xbe928f6b	-0.28625044
115	0xbe1a6d2e	-0.15080711
116	0x3e678903	0.2261086
117	0xbe836d1c	-0.2566918
118	0x3e57d8ab	0.21078746
119	0x3e4d1680	0.20028114
120	0xbdce3054	-0.100678116
121	0x3e032e4e	0.12810633
122	0xbe16b72f	-0.14718316
123	0xbe631d1c	-0.22179073
124	0xbe7ed75c	-0.2488684
125	0x3e997b5a	0.29976922
126	0xbd97a0a7	-0.07403689
127	0x3e637b1d	0.22214933
128	0xbbd70ee3	-0.006563054
129	0xbe3c4914	-0.18387252
130	0xbe21ad97	-0.15788876
131	0x3e107769	0.14108051
132	0xbe1f3b56	-0.15549979
133	0xbccf6326	-0.025315832
134	0x3e4c721d	0.19965406
135	0x3e20de80	0.15709877
136	0x3e609939	0.2193345
137	0xbd68d5b7	-0.05684444
138	0x3cf6c245	0.030121932
139	0x3e19f774	0.15035802
140	0xbe8d800e	-0.2763676
141	0x3e6daa85	0.2320958
142	0xbe5bbc3d	-0.21458526
143	0x3e8eff73	0.27929267
144	0xbe9201be	-0.28516954
145	0x3e28ce78	0.16485012
146	0x3dd507d2	0.10401882
147	0xbe26d3d9	-0.16291751
148	0x3e897ae3	0.26851568
149	0xbe74807b	-0.23877136
150	0x3c87a609	0.016558664
151	0x3db17246	0.08664374
152	0x3c536587	0.012902624
153	0x3d6b14fe	0.057393067
154	0x3e810970	0.25202513
155	0xbe0c2648	-0.13686478
156	0x3e9afd11	0.302712
157	0xbe4eadc3	-0.20183472
158	0xbe23d49c	-0.15999073
159	0xbdea6348	-0.11444718
160	0x3d3389dd	0.04383265
161	0x3d34830f	0.0440703
162	0xbddff536	-0.10935442
163	0xbe6ae4ac	-0.22938794
164	0xbd06d97b	-0.03292225
165	0x3e6c6f94	0.23089439
166	0x3db2b2d3	0.08725514
167	0x3de7bc4f	0.11315214
168	0xbe12d42d	-0.14338751
169	0xbe846953	-0.25861606
170	0x3de04c9e	0.109521136
171	0x3dbf22f1	0.093328364
172	0xbe5b3665	-0.21407469
173	0xbe5bd947	-0.21469603
174	0xbc48bc20	-0.012251884
175	0x3e4470ad	0.19183607
176	0xbd8e9b50	-0.06963217
177	0xbca9ed60	-0.020743072
178	0x3e2e3ee1	0.17016174
179	0x3e32d6ed	0.174648
180	0xbd51e890	-0.05124718
181	0xbe103cf2	-0.14085749
182	0x3d47b4d4	0.048756436
183	0x3d8d0f87	0.06887727
184	0x3e1b5633	0.15169601
185	0xbe894e39	-0.26817492
186	0x3e2b0947	0.16702758
187	0x3dd94654	0.10609117
188	0x3e3299bd	0.17441459
189	0xbe4b1466	-0.19832
190	0xbe91cef0	-0.28478193
191	0x3e7ac9c0	0.24491024
192	0x3e69e414	0.22840911
193	0xbd63f55f	-0.055653926
194	0xbd74a7b0	-0.05973023
195	0xbb5b4032	-0.0033455011
196	0xbda616ab	-0.08109792
197	0x3e5e2b41	0.21696188
198	0xbdeecda4	-0.116603166
199	0x3e72c401	0.23707582
200	0xbe8dc324	-0.27687943
201	0x3c77b6dc	0.015119281
202	0x3e6be2c7	0.23035727
203	0xbcb20b25	-0.02173383
204	0xba01c673	-0.0004950531
205	0x3e4ac197	0.19800411
206	0xbe879e6c	-0.26488054
207	0xbe9d33b6	-0.30703515
208	0xbd639330	-0.05556029
209	0xbe83ad8c	-0.25718343
210	0x3da787d5	0.08180205
211	0xbe036edc	-0.12835258
212	0xbcb2af73	-0.021812176
213	0x3e7c4735	0.24636538
214	0xbe8acea8	-0.2711079
215	0x3cec7db2	0.02886853
216	0x3e3461e0	0.17615461
217	0x3e6eb58d	0.23311444
218	0xbcd302c4	-0.025758155
219	0xbe35b2f0	-0.1774404
220	0xbe80ec17	-0.25180122
221	0xbe1537f2	-0.14572123
222	0x3e1f2aad	0.15543623
223	0x3db783c4	0.08960679
224	0x3e3e7716	0.18600115
225	0x3e4fec18	0.20304906
226	0x3cb79e9b	0.022414496
227	0x3e3f81b3	0.1870182
228	0xbd8fa999	-0.0701477
229	0xbe86e926	-0.26349753
230	0x3bbe1f86	0.0058020977
231	0x3dc3c98c	0.095599264
232	0xbe0a3c71	-0.13499619
233	0x3e666bf6	0.22502121
234	0xbc9d7fee	-0.01922604
235	0xbd86ce00	-0.0658226
236	0xbe321312	-0.17390087
237	0xbe5f9f83	-0.21838193
238	0x3e94eec3	0.2908841
239	0x3e5bc3a6	0.21461353
240	0x3dec1978	0.11528295
241	0x3dfbdcce	0.122979745
242	0x3da953fe	0.08267973
243	0x3e8fdd90	0.28098726
244	0x3dec0586	0.11524491
245	0xbe2befc8	-0.16790688
246	0x3db8a520	0.0901587
247	0x3e920d7f	0.28525922
248	0x3e20fb91	0.15720965
249	0xbe4d0836	-0.20022663
250	0xbe572176	-0.21008858
251	0x3e1c235a	0.1524786
252	0x3e09cd7a	0.1345729
253	0x3e8e6175	0.2780873
254	0xbe934c82	-0.28769308
255	0x3c729628	0.014806308

linear2.weight f4 [3, 256]
0	0xbd0b0bca	-0.03394679
1	0x3d89bd07	0.06725507
2	0xbcfe6c84	-0.031057604
3	0xbd1da9ba	-0.038491942
4	0x3a9e350a	0.001207025
5	0x3d582184	0.052766338
6	0x3d3dd084	0.046341434
7	0x3d05c325	0.032656807
8	0x3cc3da7a	0.023907889
9	0xbca35f55	-0.019942919
10	0xbd89b1cd	-0.06723366
11	0xbcb78414	-0.022401847
12	0xbd04bdba	-0.0324075
13	0xbd629fc7	-0.055328157
14	0x3d78267a	0.06058357
15	0x3a9557f1	0.0011394006
16	0xbd51dd93	-0.0512367
17	0x3d7099e4	0.05874051
18	0xbd2ec2d0	-0.042666256
19	0x3c4fcde9	0.01268337
20	0xbd1ae3bb	-0.037814837
21	0xbd41e9a7	-0.04734197
22	0x3d010eb9	0.03150818
23	0x3d006538	0.03134653
24	0x3c975d34	0.01847706
25	0xbc840494	-0.016115464
26	0x3d0541b4	0.032533363
27	0xbcea5945	-0.02860702
28	0xbc6a9e3b	-0.014319952
29	0x3d1f6bbe	0.03892111
30	0xbc4d1496	-0.012517115
31	0xbcdb7838	-0.026790723
32	0xbd0aa75c	-0.033851013
33	0xbd293ede	-0.04131972
34	0xbd55addd	-0.052167762
35	0x3cac0cf2	0.021002267
36	0x3ba60d1d	0.005067481
37	0x3d18ff56	0.037352882
38	0xbcf51dd8	-0.029921457
39	0x3c3144f0	0.010819659
40	0xbc99ce18	-0.018775031
41	0xbd004a1d	-0.03132068
42	0x3c84a845	0.016193518
43	0x3d18bc15	0.037288744
44	0x3d20e36a	0.03927938
45	0x3d378a06	0.044809364
46	0xbd2d80d8	-0.042359203
47	0xbcb7c01e	-0.022430476
48	0x3b96ff43	0.0046080663
49	0x3d422143	0.047395002
50	0x3cbc1c4f	0.022962717
51	0xbcafa1ae	-0.0214394
52	0xbd61b328	-0.055102497
53	0xbd408fce	-0.047012143
54	0xbb908d67	-0.0044113877
55	0xbb868181	-0.0041047935
56	0xbd082a18	-0.03324327
57	0x3ccb3fd8	0.024810717
58	0x3d83206e	0.0640267
59	0x3b8728e5	0.004124748
60	0x3d837f35	0.06420747
61	0x3c14caaf	0.009081527
62	0x3c9f9953	0.01948229
63	0x3d2a6c6a	0.041607298
64	0x3d831c8e	0.06401931
65	0x3ca87bcd	0.020566845
66	0x3cc2cc3f	0.023779033
67	0x3d4e8764	0.050422087
68	0x3bb118fc	0.0054045897
69	0xbc5b36fd	-0.013379809
70	0x3d64ce26	0.05586066
71	0x3bca6587	0.006176654
72	0xbd63fbad	-0.05565994
73	0x3d29287a	0.041298367
74	0xbcc0952a	-0.023508627
75	0xbc867d79	-0.016417252
76	0x3a4edcb7	0.00078911654
77	0xbd500dca	-0.0507944
78	0xbc3563ad	-0.011071128
79	0x3d46fb1e	0.048579328
80	0xbd465ea4	-0.0484301
81	0x3c901d34	0.01759205
82	0x3c13c2a9	0.009018579
83	0xbd08f766	-0.033439063
84	0xbcf576fd	-0.029963965
85	0xbcf65b7b	-0.030072918
86	0x3cf51fd4	0.029922403
87	0xbd012eb1	-0.03153867
88	0xbadb7885	-0.0016744292
89	0xbd6fc1e6	-0.058534525
90	0xbd17f1fb	-0.037096005
91	0x3d6e1a73	0.058130693
92	0xbd5c89c4	-0.05384232
93	0xbd5f8c51	-0.054577176
94	0x3cc70289	0.024293201
95	0xbd4fc76a	-0.050727285
96	0xbc8216ba	-0.015879977
97	0x3d63eaac	0.055643722
98	0x3b99ddd4	0.0046956334
99	0xbd434154	-0.047669724
100	0xbcb64138	-0.022247896
101	0xbc953be8	-0.018217042
102	0xbcd112da	-0.025521684
103	0xbd0ac807	-0.033882167
104	0xbc37ee8a	-0.011226306
105	0x3c003e3b	0.007827337
106	0xbd024ed2	-0.03181345
107	0x3d68a179	0.056794617
108	0x3d3beeac	0.045881912
109	0xbd41ca75	-0.04731222
110	0x3c453473	0.012036431
111	0xbc4aa275	-0.012367834
112	0xbd52b850	-0.051445305
113	0xbd88930c	-0.06668672
114	0xbcc195f0	-0.023631066
115	0xbd2f1088	-0.042740375
116	0xbc7716cd	-0.01508112
117	0x3d77fd02	0.06054402
118	0x3d465b31	0.04842681
119	0xbd626a6e	-0.05527728
120	0xbd51935a	-0.051165916
121	0xbd4fb7a8	-0.050712258
122	0x3d638de1	0.05555523
123	0x3d5fde7c	0.054655537
124	0x3d7e2306	0.06204512
125	0xbcb82c94	-0.022482194
126	0xbd6b9afb	-0.057520848
127	0xbafba781	-0.00191997
128	0x3c73fd06	0.014891868
129	0x3cc2a5e0	0.023760736
130	0x3d471786	0.048606418
131	0x3ce622b6	0.028092723
132	0x3d55cc96	0.05219706
133	0x3d4c84b6	0.04993125
134	0x3d1fe94e	0.039040856
135	0x3cc55826	0.024089884
136	0x3cfc0bf3	0.030767417
137	0x3c306165	0.010765408
138	0xbd109051	-0.03529388
139	0xbc34bbe4	-0.011031125
140	0xbced03cc	-0.028932475
141	0xbd268e19	-0.04066286
142	0xbcc53491	-0.024072917
143	0x3d4c52ae	0.049883537
144	0x3d5b8ac0	0.05359912
145	0xbced4051	-0.028961333
146	0x3c92af3a	0.01790582
147	0xbcf916f8	-0.03040646
148	0xbd44ee19	-0.04807863
149	0x3c7b8d3c	0.015353497
150	0xbc3593c1	-0.011082591
151	0x3d4faf54	0.050704315
152	0x3b9f0052	0.004852333
153	0xbcc1fb2c	-0.023679338
154	0xbbff29c3	-0.007786961
155	0x3d543db9	0.051816676
156	0x3a9272b9	0.0011173106
157	0xbbfd98b6	-0.007739152
158	0x3cf6341f	0.03005415
159	0x3d4193d1	0.04726011
160	0x3cadee12	0.021231685
161	0x3c121921	0.008917124
162	0xbb348385	-0.0027544212
163	0xbd7f30a2	-0.06230224
164	0x3995a13d	0.00028539627
165	0xbd5ac32b	-0.053408783
166	0x3d263580	0.040578365
167	0xbd3f5570	-0.04671234
168	0xbcd91038	-0.026496992
169	0xbc1653d8	-0.009175263
170	0xbcf5fd70	-0.030028075
171	0xbb249bd5	-0.0025117297
172	0xbcd2cab0	-0.025731415
173	0xbd686f96	-0.05674704
174	0x3cb44178	0.022003874
175	0x3d05a23e	0.03262543
176	0xbbeab510	-0.0071626976
177	0xbd0ba931	-0.0340969
178	0x3d06c4c8	0.03290251
179	0x3b4200ab	0.002960245
180	0x3d36ee84	0.04466106
181	0x3d10e505	0.03537466
182	0x3d1eb306	0.03874495
183	0x3ca28daf	0.01984295
184	0x3d5bb7da	0.05364213
185	0xbb77fb13	-0.003783886
186	0x3d787a68	0.06066361
187	0x3cd092ce	0.025460627
188	0x3c8f5776	0.01749776
189	0xbb6b9040	-0.0035944134
190	0x3d6a0308	0.057131797
191	0xbcb32ebc	-0.02187287
192	0xbc9c7c2e	-0.019102182
193	0x3d156133	0.03646965
194	0x3c6e2525	0.014535223
195	0x3990401e	0.0002751359
196	0xbd06a90e	-0.032876067
197	0xbd057a43	-0.0325873
198	0x3d77835e	0.060428016
199	0x3d84a5e7	0.06476956
200	0xbd29939f	-0.041400548
201	0xbd53cea3	-0.051710736
202	0xbc6d447a	-0.014481658
203	0x3d421305	0.04738142
204	0x3d229716	0.039694868
205	0x3d27ac8f	0.04093605
206	0x3d760972	0.0600676
207	0x3d209fe1	0.039214972
208	0x3c55a238	0.013039164
209	0xbb7767c0	-0.0037751049
210	0x3d74ee6d	0.059797693
211	0xbccd7280	-0.025079012
212	0xbacfba5c	-0.0015848386
213	0x3d3540d0	0.044251263
214	0xbd6a4752	-0.057196923
215	0x3c6e3fe0	0.014541596
216	0xb85db998	-5.2863354e-05
217	0xbcd23c4d	-0.02566352
218	0x3c9b1189	0.01892926
219	0x3c69bd0f	0.0142662665
220	0xbcf89e72	-0.03034899
221	0xbc86486c	-0.016391955
222	0xbcadea33	-0.021229839
223	0x3a35a59f	0.00069292815
224	0xbc5aa494	-0.013344903
225	0x3bf1e4f7	0.007382031
226	0x3d4e7d82	0.050412662
227	0x3d6721b8	0.05642864
228	0xbd3f637a	-0.046725728
229	0x3c7ac3c8	0.015305467
230	0xbc17f80c	-0.009275448
231	0xbd418e9a	-0.047255136
232	0xbcce09e7	-0.025151206
233	0xbd6bf2c2	-0.05760456
234	0xbd0d3d52	-0.034482308
235	0x3d2f6400	0.042819977
236	0x3d6e4820	0.058174253
237	0xbd491994	-0.04909666
238	0x3d7c8d03	0.061657917
239	0x3ccb9f9f	0.024856387
240	0x3ce0a00c	0.027420066
241	0xbc8cd4df	-0.017191349
242	0xbd1170cb	-0.03550796
243	0x3d1d35f6	0.03838154
244	0xbcd33cb9	-0.02578579
245	0x3d0f4fff	0.0349884
246	0x3d188d4a	0.03724412
247	0x3d4f3658	0.050588936
248	0x3d483da2	0.048886903
249	0x3be938f9	0.0071173874
250	0x3d6f99d6	0.05849632
251	0xbcd09347	-0.025460852
252	0x3c523a18	0.012831233
253	0xbc866618	-0.016406104
254	0x3d501bb0	0.050807655
255	0xbd1b8965	-0.037972827

linear2.bias f4 [3]
0	0x3c66c181	0.014084221
1	0xbcfa859f	-0.030581294
2	0x3d054c0e	0.032543235
